src/model.pt (torch, 168079 bytes, 8 tensors)

0.weight f4 [100, 6]
0	0xbcbe72e5	-0.023248145
1	0xbf0974ec	-0.53694034
2	0x413be0a5	11.742345
3	0x40b5596c	5.6671658
4	0x3dc5477c	0.09632775
5	0x40ec1a52	7.378213
6	0x3ebc073f	0.36724278
7	0xbe9a1370	-0.30092955
8	0x41284491	10.51674
9	0x40ca9586	6.3307524
10	0xbf402676	-0.75058687
11	0x40c46bd7	6.138164
12	0xbe93064d	-0.28715745
13	0x3e9ab5bc	0.30216777
14	0x3ece495a	0.40290338
15	0xbd3258d0	-0.04354173
16	0xbea96033	-0.33081207
17	0x3d789dd0	0.060697377
18	0xbe8db8aa	-0.2767995
19	0xbe560b44	-0.20902735
20	0x3bcc90e0	0.0062428564
21	0xbe3b2b06	-0.18278131
22	0x3d30b0e2	0.04313744
23	0xbcfaa69c	-0.030597024
24	0xbe8b598a	-0.2721675
25	0x3e7df410	0.24800134
26	0x3dac91ec	0.0842627
27	0x3d93727c	0.071995705
28	0xbd935b98	-0.071952045
29	0xbe5c98fa	-0.21542731
30	0x3da965b4	0.082713515
31	0xc2c2afee	-97.34361
32	0xc0f26bcf	-7.57566
33	0xc2acd303	-86.41213
34	0xc276aa49	-61.666294
35	0x40a3d63a	5.1199007
36	0xbdf19b94	-0.11797252
37	0xbe972daa	-0.29527026
38	0xbdb7fee8	-0.089841664
39	0xbeb0b76e	-0.34514946
40	0xbe6b4bc6	-0.22978124
41	0xbea6f40c	-0.32608068
42	0xbf02339e	-0.5086001
43	0xbfe20fad	-1.7661034
44	0xc189fc78	-17.248276
45	0xc1055b0c	-8.334728
46	0x3ea5af94	0.32360518
47	0x411b4674	9.7047
48	0xbe7a26c3	-0.24428849
49	0xbec71af0	-0.3888774
50	0x3e8a8060	0.27051067
51	0x3dd76980	0.105181694
52	0xbebff768	-0.37493443
53	0xbdce1584	-0.100626975
54	0xbf3ec4ff	-0.7451934
55	0xbf0e36c0	-0.5555229
56	0xbf6a43fc	-0.91509986
57	0x3e433e2d	0.19066687
58	0xbdbb672f	-0.0915054
59	0x3fddab6a	1.7317936
60	0xbc708476	-0.014680019
61	0xc0257c4e	-2.585712
62	0x418a1818	17.261765
63	0x418e2007	17.765638
64	0x3e3005fb	0.17189781
65	0x40c10ca4	6.032793
66	0xbc1a8eaa	-0.009433428
67	0x3f02a863	0.5103819
68	0x40810feb	4.033193
69	0x416ee5dc	14.931118
70	0x3ea6aed0	0.32555246
71	0x41077251	8.465409
72	0xbd764178	-0.06012103
73	0xbe93623a	-0.28785878
74	0x406cc43f	3.699478
75	0x40c71e7e	6.222472
76	0xbd22c718	-0.03974065
77	0x40ebbf48	7.3671
78	0xbe803cfb	-0.25046524
79	0x3e883596	0.26603383
80	0xbe7bfb88	-0.2460767
81	0x3e803016	0.25036687
82	0xbeb7c357	-0.3589122
83	0xbe391fed	-0.18078585
84	0x3d745352	0.059649773
85	0x3fbe146f	1.4849986
86	0xc129637f	-10.586791
87	0xc19a7fc4	-19.312386
88	0x3f52174f	0.82066816
89	0xc0b80563	-5.7506576
90	0xbbb23694	-0.005438635
91	0xc0c3dfd3	-6.1210723
92	0x40b19f4e	5.5506964
93	0x41b6cc90	22.849884
94	0xbf3a2484	-0.7271197
95	0x41023876	8.138784
96	0xbd742ea1	-0.05961478
97	0xbec8b0a4	-0.39197266
98	0xc1a43713	-20.526892
99	0xbf881f7b	-1.0634607
100	0x3e35a4a0	0.1773858
101	0xc1c852ef	-25.040495
102	0xbdc57b9c	-0.09642717
103	0x3ec273e8	0.37979054
104	0x3d264628	0.04059425
105	0x3da735cc	0.08164558
106	0xbec2806f	-0.37988612
107	0x3e45ac8c	0.19304103
108	0x3d37e76a	0.044898428
109	0x3c9caf6f	0.019126622
110	0x4056c71e	3.3559031
111	0x408dff2a	4.437398
112	0x3d0e3598	0.03471908
113	0xc17d283a	-15.822321
114	0xbc2b1140	-0.010441124
115	0x3e9b667a	0.3035162
116	0x3e8dc9da	0.27693063
117	0xbe946210	-0.28981066
118	0xbe6c471d	-0.23074003
119	0xbeb6b13f	-0.35682103
120	0x3dfd4d74	0.12368289
121	0xbf71d13c	-0.9445989
122	0x40c27d2c	6.07778
123	0xc0875691	-4.229317
124	0x3dfe7537	0.12424701
125	0xc110593b	-9.021785
126	0xbc145a22	-0.009054692
127	0x3f37133c	0.71513724
128	0x4084c0f4	4.148554
129	0xc0f2648f	-7.574775
130	0x3f1521fe	0.5825499
131	0x40e3f1bd	7.123259
132	0xbb901c22	-0.004397885
133	0xbf49f039	-0.78882176
134	0xc0b3af3d	-5.6151414
135	0x410359e6	8.209448
136	0x3e06f0e2	0.13177827
137	0x40e1cc26	7.0561705
138	0x3dd8689c	0.10566828
139	0xbebd8514	-0.37015593
140	0xc1b4b9db	-22.59075
141	0xc081d149	-4.0567975
142	0x3dcdee24	0.10055187
143	0xc0dd0ab7	-6.907558
144	0xbbc5d39b	-0.006037188
145	0x3f84367b	1.0329126
146	0x4090cd54	4.5250645
147	0x414435ae	12.263105
148	0xbf00796c	-0.50185275
149	0x410a3f50	8.640457
150	0xbea29206	-0.31752032
151	0x3cab10d0	0.02088204
152	0x3d8aed18	0.06783503
153	0x3e1bb1f8	0.15204608
154	0xbdc15954	-0.09440866
155	0x3da4148c	0.080117315
156	0x3e91428d	0.28371087
157	0x3f6707c0	0.902462
158	0x4123150b	10.192637
159	0x41365af2	11.397203
160	0xbef9d28b	-0.48793444
161	0x40bd796a	5.921071
162	0xbe61deb9	-0.22057618
163	0xbe5696c6	-0.20955953
164	0x3d63de40	0.055631876
165	0x3e74cf7c	0.23907274
166	0xbdea2b34	-0.114340216
167	0x3e1f794c	0.15573615
168	0xbe8c1d9c	-0.2736634
169	0x3e97f8d2	0.29682022
170	0xbd9ccb7c	-0.07655999
171	0x3e58ddd8	0.21178377
172	0xbe640524	-0.22267586
173	0xbec63db9	-0.38718966
174	0xbc2bbe17	-0.010482333
175	0xbdc4f1e1	-0.09616447
176	0xc1adcd20	-21.725159
177	0xc0296803	-2.6469734
178	0xbbf03625	-0.0073306733
179	0x40fa4249	7.8205914
180	0xbea8c354	-0.32961524
181	0x3e87c35e	0.2651624
182	0x3d1af960	0.03783548
183	0x3d85e8d0	0.06538546
184	0xbebd96ea	-0.370292
185	0xbdd6b094	-0.10482898
186	0xbb5a6ef2	-0.0033330289
187	0xbfd7e3a6	-1.6866348
188	0x41719700	15.099365
189	0x41c114d5	24.135172
190	0x3e9f0f96	0.3106658
191	0x40c0108e	6.002021
192	0xbe8a231b	-0.26979908
193	0xbcd052d0	-0.025430113
194	0xbe2a16a8	-0.16610205
195	0xbd9fe71c	-0.078077525
196	0xbe1e6de0	-0.15471601
197	0x3dc16700	0.09443474
198	0xbdc17a99	-0.09447212
199	0xbef55eb5	-0.47923818
200	0xc1cb20de	-25.391048
201	0xbf259ae7	-0.6468949
202	0x3e757a26	0.23972377
203	0xc17770b6	-15.465017
204	0x3d32af09	0.043623958
205	0x3eb1f330	0.3475585
206	0x4182a559	16.330736
207	0xc2087754	-34.11653
208	0xbd849e75	-0.06475536
209	0xc106c10c	-8.422131
210	0x3ebbfa1c	0.36714256
211	0x3f0340d4	0.51270795
212	0x413e7bb5	11.905202
213	0x411f4796	9.954977
214	0x3f0a5d8b	0.54048985
215	0x40cd0a27	6.4074893
216	0xbc447abe	-0.011992155
217	0x40171284	2.360505
218	0x416332d5	14.19991
219	0x41ccb492	25.58817
220	0xbf233629	-0.63754517
221	0x40f2843c	7.578642
222	0xbecc0336	-0.398462
223	0x3ec4cfd2	0.38439804
224	0xbe0af3f4	-0.13569623
225	0xbdb71f70	-0.08941543
226	0xbecd33f2	-0.40078694
227	0x3e49a7a8	0.19692862
228	0x3dd41f76	0.10357563
229	0x3fa51879	1.2898093
230	0xc12f517f	-10.9573965
231	0xc02a97eb	-2.6655223
232	0xbe8885c6	-0.2666456
233	0xc0b95bec	-5.792471
234	0xbe579815	-0.21054108
235	0xbea702a7	-0.3261921
236	0xbed06f3f	-0.40709874
237	0xbd16fe08	-0.036863357
238	0xbea419c7	-0.32050917
239	0xbc26a7a0	-0.010171801
240	0xbea37459	-0.31924704
241	0x3e2b7699	0.1674446
242	0xc149a5f7	-12.603019
243	0xc03f862d	-2.9925644
244	0x3ea77210	0.3270421
245	0xc14cbd94	-12.796284
246	0x3b022dd1	0.0019863734
247	0x3f0eed64	0.5583098
248	0x3fe6f187	1.8042458
249	0x40dd0089	6.9063153
250	0x3ec41ea1	0.38304618
251	0xc189a892	-17.20731
252	0xbc425ce0	-0.011862963
253	0xbe375f32	-0.17907408
254	0xbe408cf6	-0.18803772
255	0xbe0df3fe	-0.13862607

0.bias f4 [100]
0	0x42eddb05	118.92777
1	0xbfecbafd	-1.8494564
2	0x3e783d24	0.24242073
3	0x3ead8049	0.33886936
4	0x3e002660	0.12514639
5	0x42cfc028	103.875305
6	0xbe417490	-0.18892121
7	0x420f9362	35.89393
8	0xbe45026f	-0.1923921
9	0xbdf0548e	-0.117348775
10	0x428c7d1a	70.24434
11	0xc1f91f8c	-31.140404
12	0xc1652edb	-14.323939
13	0x3e764804	0.2405091
14	0xc22cc637	-43.19357
15	0x41b3426e	22.407436
16	0xc0edc346	-7.430087
17	0xbeced9d6	-0.4040057
18	0xc1f7a17a	-30.953846
19	0xbe9dcf4d	-0.3082222
20	0xc1e2b78e	-28.339626
21	0x4231b2d3	44.424633
22	0x422dc7a0	43.444946
23	0xc2db078d	-109.51475
24	0xc198e244	-19.110481
25	0x3e6d33b4	0.23164254
26	0xbf45d476	-0.77277315
27	0xbeafed04	-0.34360516
28	0xbe50b6a5	-0.20382173
29	0xc30a2f4e	-138.18478
30	0xbdc858c4	-0.09782556
31	0x41f6629e	30.798153
32	0xbe850d8a	-0.25986892
33	0xc0df2335	-6.9730477
34	0x42c2149d	97.04026
35	0x40dfc7e0	6.993149
36	0xc156f765	-13.435399
37	0x3cf63280	0.030053377
38	0xc2b1f3b2	-88.97597
39	0x3e67a018	0.22619665
40	0xc07cd771	-3.9506495
41	0xc18e1059	-17.757982
42	0xbc5f1ac0	-0.013617218
43	0x3e0c3938	0.13693702
44	0x41c7ba5c	24.965996
45	0xbc9cfe50	-0.019164234
46	0x400714bc	2.1106405
47	0xbdc64b40	-0.096823215
48	0x42014a1a	32.322365
49	0x41bdef32	23.741795
50	0x41cb3372	25.40012
51	0xbeb26b82	-0.34847647
52	0xbe34ed81	-0.17668726
53	0x42bf35b2	95.60487
54	0xc2a6c247	-83.37945
55	0xc02f5f16	-2.7401786
56	0xbea2445a	-0.31692773
57	0x42964280	75.12988
58	0xbeec03db	-0.4609669
59	0xbe5c5c77	-0.21519648
60	0xc2e97af1	-116.74012
61	0xbe9c0cb9	-0.30478457
62	0xc1894dc1	-17.162966
63	0xc3015aa9	-129.35414
64	0x3e97571e	0.29558653
65	0xbfbfdd3d	-1.4989392
66	0xc2c71ffb	-99.56246
67	0xbe53c783	-0.20681576
68	0x420a4112	34.563545
69	0x41e3a0dc	28.453545
70	0x3ebd6c18	0.3699653
71	0x3e1421a4	0.14465958
72	0xc1e46f06	-28.55421
73	0xbcd7254a	-0.026262898
74	0x41b956c5	23.167368
75	0xbeb027d9	-0.344054
76	0xc2ce6ec4	-103.21634
77	0x429a5589	77.16706
78	0xbe9115c8	-0.2833693
79	0xc14ff8e3	-12.998263
80	0xc1d03ecc	-26.030663
81	0x421bc010	38.93756
82	0x410d3737	8.82598
83	0xbe237097	-0.15960918
84	0xc2da4fe4	-109.15604
85	0xc1a9221b	-21.141653
86	0xc2113ce2	-36.309456
87	0x419795f2	18.948215
88	0xc163d953	-14.240558
89	0x42ee3b0d	119.11533
90	0x41112b33	9.073047
91	0xc2b2b687	-89.3565
92	0xc21fcd31	-39.950382
93	0xc2afc937	-87.893
94	0x40c69651	6.205849
95	0xc1869aff	-16.825682
96	0xc280f4b4	-64.477936
97	0xbd2034d8	-0.039112896
98	0x426b1fda	58.781105
99	0xc2668736	-57.632042

2.weight f4 [200, 100]
0	0xbd707d0f	-0.058713015
1	0x3d9277e8	0.071517766
2	0xbd52d0dd	-0.05146872
3	0x3d43e9d5	0.04783042
4	0x3d28477c	0.041083798
5	0x3d901e6b	0.07037052
6	0x3dcf93bb	0.10135599
7	0x3d2409d3	0.04004843
8	0xbbca0ecd	-0.006166315
9	0x3d6f169a	0.058371164
10	0x3ddb40db	0.107057296
11	0x3c894269	0.0167553
12	0x3d9a09b4	0.07521382
13	0x3d53aa57	0.05167612
14	0x3b71ed97	0.0036915296
15	0xbda6d7b9	-0.081466146
16	0xbc3b329b	-0.0114256395
17	0x3dacade3	0.08431604
18	0xbdbce325	-0.09223012
19	0xbcd1fe9d	-0.025634104
20	0x3d43ae48	0.04777363
21	0xbc9a96ce	-0.018870737
22	0xbd713d37	-0.05889627
23	0x3d306bb0	0.04307145
24	0xbde042dd	-0.10950253
25	0xbd982966	-0.07429771
26	0xbdca84fd	-0.09888647
27	0xbd8c037e	-0.068366036
28	0x3902462e	0.0001242391
29	0x3ca4ef85	0.020133743
30	0x3c3ed540	0.011647522
31	0x3c675332	0.014118956
32	0x3d9b9411	0.07596601
33	0xbc4f0e53	-0.0126376925
34	0xbd44b387	-0.048022773
35	0x3c43f8ae	0.011961145
36	0x3c89767e	0.016780134
37	0x3ce3b392	0.027795587
38	0xbdba8b3b	-0.09108587
39	0xbdb73a2b	-0.089466415
40	0xbd18d266	-0.037310027
41	0xbdcecae9	-0.10097296
42	0x3dd18aeb	0.102315746
43	0x3d2e3919	0.04253492
44	0xbdc32e49	-0.095303126
45	0x3d0ae69e	0.03391134
46	0xbdebadaf	-0.11507737
47	0x3ccdf43a	0.02514087
48	0xbd940f08	-0.072294295
49	0x3d8164f2	0.06318082
50	0x3da3f559	0.08005781
51	0x3be97c93	0.007125446
52	0x3dd38957	0.1032893
53	0xbd9a3dcb	-0.07531317
54	0xbdbc1ff0	-0.09185779
55	0xbdff3ddf	-0.12462973
56	0xbce45276	-0.027871352
57	0xbdb4dff3	-0.088317774
58	0xbdb117c0	-0.08647108
59	0x3ce96fe6	0.02849574
60	0x3d08d555	0.033406574
61	0xbc9231ed	-0.017846072
62	0xbd2c3718	-0.04204473
63	0xbdb59b98	-0.08867568
64	0x3ce687ce	0.028140929
65	0x3d418986	0.047250293
66	0xbc23d81f	-0.010000258
67	0xbd50e310	-0.050997794
68	0xbd2bffb4	-0.041991904
69	0x3bc80ec2	0.006105275
70	0x3b815255	0.0039465823
71	0x3caaef1a	0.020865966
72	0xbde76281	-0.11298085
73	0x3cd5f8ba	0.026119579
74	0x3c20eae8	0.009821631
75	0x3cccb566	0.024988841
76	0xbcfe52fe	-0.031045433
77	0x3c3a6b48	0.011378117
78	0x3c434688	0.011918671
79	0xbdbac5d8	-0.09119767
80	0xbcdd794f	-0.027035384
81	0xbbabb946	-0.005240592
82	0x3cd0499f	0.02542573
83	0x3cd7f6e6	0.026362848
84	0xbdf9a0e3	-0.1218889
85	0x3c088fca	0.008335063
86	0xbcb9c73f	-0.022678016
87	0x3d4fbe03	0.05071832
88	0x3d47fbeb	0.048824232
89	0xbd83814d	-0.064211465
90	0xbd2322a3	-0.039827954
91	0xbcff7490	-0.031183511
92	0x3d13140d	0.035907794
93	0xbdd057b2	-0.101729766
94	0xbd44256e	-0.04788726
95	0x3d1a9dfa	0.037748314
96	0x3d6630f3	0.056199025
97	0xbad520cd	-0.0016260386
98	0xbd1128d3	-0.035439324
99	0xbdcadde2	-0.09905602
100	0x3ff879b6	1.9412143
101	0x3d22afa6	0.039718293
102	0xc2877c02	-67.7422
103	0xc28748ec	-67.642426
104	0xc2875524	-67.66629
105	0xbfbbaf17	-1.4662808
106	0xc2875116	-67.65837
107	0xc285ddb2	-66.933
108	0xc2877722	-67.73268
109	0xc282c80c	-65.39072
110	0x3ef66cba	0.48129827
111	0xbd373117	-0.04472455
112	0xbf21a59f	-0.6314334
113	0xc2874c76	-67.64934
114	0x3d0756d8	0.033041805
115	0xbefca8a1	-0.49347404
116	0xc24fa90c	-51.915085
117	0xc28750c5	-67.65775
118	0xbe5228cf	-0.2052338
119	0xc2874a1e	-67.64476
120	0xbd2f4486	-0.04278996
121	0x3d29a1e7	0.041414168
122	0x3e18736b	0.14887778
123	0xbdb72197	-0.08941954
124	0x3d8e3001	0.0694275
125	0xc28753df	-67.66381
126	0xbcd96059	-0.0265352
127	0xc2872f55	-67.592445
128	0xc2874c5e	-67.649155
129	0xbf90da68	-1.1316652
130	0xc2872d75	-67.58878
131	0x3e817687	0.25285742
132	0xc2873e92	-67.62221
133	0xc24e138a	-51.51908
134	0x3e46386a	0.19357458
135	0xbb92a132	-0.0044747824
136	0x3ddbbd63	0.10729482
137	0xc2875b02	-67.67775
138	0xbd863f68	-0.065550625
139	0xc2877613	-67.73061
140	0xc24d12c7	-51.268337
141	0xbe1bbb38	-0.15208137
142	0xc28745a0	-67.63599
143	0xc28734b7	-67.60296
144	0xbdcacee7	-0.09902745
145	0xc2873c0e	-67.617294
146	0xc282d102	-65.40822
147	0xc2875368	-67.6629
148	0x3d9e10cb	0.07718047
149	0xbe1c347e	-0.15254399
150	0x3d508179	0.050904725
151	0xc2873f99	-67.624214
152	0xc2874349	-67.63142
153	0xbe155761	-0.14584114
154	0xbdc8b765	-0.09800605
155	0xbe88494a	-0.26618415
156	0xc2872ca6	-67.587204
157	0xbe5a7073	-0.21331958
158	0xc283f388	-65.97565
159	0xc2874644	-67.63724
160	0xbf2a4bf2	-0.66522133
161	0xc2872e0a	-67.58992
162	0xc2440d7e	-49.013176
163	0xbf1d82f7	-0.6152796
164	0xc2875fa8	-67.68683
165	0xc28742b3	-67.63027
166	0x3d619c48	0.055080682
167	0xc28772f9	-67.724556
168	0xbe1582ef	-0.14600728
169	0xbe48fb19	-0.19627036
170	0xc2874853	-67.64126
171	0xc2873f8c	-67.624115
172	0xbcadcf75	-0.021217087
173	0xc2874ecc	-67.6539
174	0x3ab38fe6	0.0013699501
175	0xc2876d99	-67.71406
176	0xbe76f106	-0.2411538
177	0x3c293147	0.01032669
178	0xc2873153	-67.59634
179	0xc24c2166	-51.032616
180	0xbd03d436	-0.032184802
181	0xc280b2e9	-64.349434
182	0x3e37431a	0.17896691
183	0xc2878597	-67.76092
184	0xbdde7f6f	-0.1086415
185	0x3c91e291	0.01780823
186	0xc27256e0	-60.58484
187	0x3d09676c	0.033545896
188	0xc27504d9	-61.254734
189	0x3f719b30	0.9437742
190	0xbd2df6fa	-0.042471863
191	0xbeddf169	-0.43348244
192	0xbca7d55b	-0.020487478
193	0x3e8c21b7	0.27369472
194	0xbc736112	-0.014854686
195	0xbc36b83e	-0.011152325
196	0xbd3ac954	-0.045602158
197	0xc287441e	-67.63304
198	0xbcbf30ca	-0.023338694
199	0x3d6ad7c1	0.057334665
200	0xbd871b53	-0.065970086
201	0x3d7b5a28	0.061365277
202	0xbf65e275	-0.8979867
203	0xbf647df4	-0.8925469
204	0xbf7dbee6	-0.9911941
205	0xbaf2380c	-0.0018479838
206	0xbf557f2d	-0.8339718
207	0x3e608982	0.21927455
208	0xbf69ff97	-0.91405624
209	0x3d5a22e7	0.05325594
210	0xbd7fe12f	-0.06247061
211	0xbd6d0e4d	-0.057874966
212	0xbca00452	-0.01953331
213	0xbf6be501	-0.9214631
214	0xbe43a9e5	-0.19107778
215	0xbd97f122	-0.07419039
216	0x3dd55614	0.10416809
217	0xbf53956b	-0.8264987
218	0xbd600787	-0.05469468
219	0xbf77c621	-0.96786696
220	0xbc93883d	-0.0180093
221	0xbdd8f7ee	-0.10594164
222	0xbd847819	-0.06468219
223	0xbc7a8c51	-0.015292243
224	0xbe1899fb	-0.14902489
225	0xbf620b38	-0.8829837
226	0x3d203546	0.039113306
227	0xbf68cf34	-0.90941167
228	0xbf699ea1	-0.91257674
229	0xbd5b49bd	-0.05353712
230	0xbf7cac3a	-0.98700297
231	0xbc7e8861	-0.015535445
232	0xbf62d80b	-0.88610905
233	0x3c2f2a2f	0.01069121
234	0xbca46a3d	-0.02007019
235	0xbe05e3f2	-0.13075235
236	0xbd44217b	-0.047883492
237	0xbf5d5614	-0.8645947
238	0xbcd18359	-0.025575327
239	0xbf5c1b72	-0.8597938
240	0x3d56a596	0.05240401
241	0x3d1a72ac	0.037707016
242	0xbf616ded	-0.8805836
243	0xbf6a4c6e	-0.9152287
244	0xbd519f50	-0.051177323
245	0xbf5bfab3	-0.8592941
246	0x3d851f07	0.065000586
247	0xbf80ae2e	-1.0053155
248	0xbca7fa92	-0.020505223
249	0xbcc5bbe3	-0.024137443
250	0x3c91c6ed	0.01779505
251	0xbf63841a	-0.88873446
252	0xbf608c9a	-0.8771454
253	0xbe18a00b	-0.14904802
254	0x3d8ddfb8	0.069274366
255	0x3d6d095a	0.057870246

2.bias f4 [200]
0	0x3d4153ec	0.047199175
1	0x42874a72	67.6454
2	0x3f76db25	0.9642814
3	0xbc8490c2	-0.016182307
4	0xbd16515d	-0.036698688
5	0x42352901	45.290043
6	0x414d3963	12.82651
7	0x40015ec1	2.0214083
8	0x4291c8af	72.89196
9	0x428d3987	70.61236
10	0x3f462479	0.773994
11	0x41e0df4c	28.109032
12	0x428c0718	70.013855
13	0xba38ae94	-0.0007045057
14	0x3c8b004a	0.016967911
15	0xc28f8630	-71.762085
16	0xbe0451ff	-0.12921904
17	0xbd6754fb	-0.056477528
18	0x3d1cbc9f	0.03826582
19	0x4281a7cf	64.82775
20	0x402e7b60	2.7262802
21	0xbdb0e524	-0.08637455
22	0x404743fc	3.1135244
23	0xc249b38c	-50.42534
24	0x408857d9	4.2607236
25	0xbdb6b275	-0.08920757
26	0x4282e05f	65.438225
27	0x40017c6b	2.0232189
28	0xbd20d1c1	-0.039262537
29	0x3dacb73c	0.08433387
30	0x3d0ced19	0.0344058
31	0xbdc1a696	-0.09455602
32	0xbd3324b9	-0.043736193
33	0xbd5ae1b0	-0.05343789
34	0x3d4c0fa8	0.04981962
35	0x3c0789ee	0.008272631
36	0xbde48b93	-0.11159434
37	0x3f10a2a1	0.5649815
38	0x42209ad8	40.151215
39	0x3d893ec0	0.06701422
40	0xbc606bf6	-0.013697615
41	0x427c9ed8	63.15512
42	0x3ace3aa2	0.0015734027
43	0x3d600140	0.054688692
44	0x4004f077	2.0771768
45	0xbd92f3ed	-0.071754314
46	0xbc3b0c40	-0.011416495
47	0xbc8491ae	-0.016182747
48	0xc22c21a6	-43.03286
49	0xbde3cf55	-0.1112353
50	0x3fc5d6f6	1.5456226
51	0x3cd57afc	0.02605962
52	0x422e6f16	43.608482
53	0x3f149c57	0.58051056
54	0x3d5ac51b	0.05341063
55	0xbd9419f6	-0.07231514
56	0x3cf160e1	0.02946514
57	0x3db2f0bf	0.08737325
58	0xbdd5a425	-0.10431699
59	0x429c0c81	78.02442
60	0xbdb2fad1	-0.08739246
61	0xc2ca2efd	-101.091774
62	0xc1255eaa	-10.335611
63	0x401dcd5a	2.4656587
64	0xbdbe1dad	-0.09283004
65	0xbcfd2846	-0.030902993
66	0xbdadc136	-0.08484118
67	0x3fbf8576	1.4962604
68	0x400a3ae2	2.159844
69	0xc29936f3	-76.60732
70	0xbe086ae0	-0.1332202
71	0xc224d828	-41.21109
72	0xbeabbfd0	-0.3354478
73	0xbb3e9f6c	-0.0029086722
74	0xbd0dbacc	-0.03460197
75	0xbc22a350	-0.009926632
76	0x425af497	54.738857
77	0x429272d4	73.22427
78	0xbc983eba	-0.018584598
79	0x42279280	41.893066
80	0xc2f74912	-123.642715
81	0x3f35f5cc	0.7107818
82	0x40cf462c	6.477316
83	0xc08341ed	-4.1017976
84	0xbc952dff	-0.01821041
85	0x41743601	15.263185
86	0x3d60343a	0.054737307
87	0xc02cb649	-2.6986258
88	0xc1ba46e3	-23.284613
89	0x41c90cfc	25.13134
90	0x430a3393	138.20146
91	0x405eacd7	3.4792993
92	0x415b2bf2	13.698229
93	0xbccf6473	-0.025316453
94	0xc2b89fc5	-92.31205
95	0xbce08ae6	-0.027409982
96	0xc2108fb3	-36.14033
97	0xbdb3a16f	-0.087710254
98	0xbd29e450	-0.0414775
99	0xbdeea067	-0.11651688
100	0xbcb0130d	-0.02149346
101	0xbd45003a	-0.04809592
102	0x4122a643	10.165591
103	0x3cb5c21f	0.02218729
104	0x4289e8b2	68.95448
105	0xbd32a8a3	-0.043617856
106	0xbdb263f3	-0.0871047
107	0xbdc80caf	-0.09768044
108	0x400839b6	2.1285224
109	0xbc86d12e	-0.016457167
110	0xbd138cc0	-0.0360229
111	0x3d08b86e	0.03337901
112	0xbae73d86	-0.0017642237
113	0x43225df2	162.36697
114	0xc18e3e03	-17.78028
115	0x421f8696	39.88143
116	0xbe04f09f	-0.12982415
117	0x3c9f674c	0.019458435
118	0xbdba6312	-0.091009274
119	0x3e8d31e6	0.27577132
120	0xc29a6f8c	-77.217865
121	0xbd18522a	-0.037187733
122	0xbd1dde4c	-0.038542077
123	0xbcfef84f	-0.031124262
124	0xbd62bb12	-0.055354185
125	0x400ae1c5	2.1700299
126	0xbdbf0213	-0.093265675
127	0xc1da84a2	-27.314762
128	0xbd2baa32	-0.041910358
129	0x3d584455	0.05279954
130	0xbf0cc3c9	-0.54986244
131	0x41fb17b0	31.386566
132	0x3d276f50	0.04087764
133	0xbdeee9da	-0.116656974
134	0x3d5f55c0	0.054525137
135	0x40050265	2.0782712
136	0x3fba3ccd	1.4549805
137	0x3e2d56ca	0.16927639
138	0x421a05a4	38.50551
139	0xbe032aa5	-0.12809236
140	0xbd95a42e	-0.073067054
141	0xbd8240d3	-0.063600205
142	0xbf3f9dc7	-0.74850124
143	0xc2610f44	-56.264908
144	0x40310692	2.766026
145	0x41fd4a4d	31.66128
146	0x3f22b36d	0.6355503
147	0x3daed169	0.085360356
148	0xbddd82ac	-0.10815939
149	0xc0bfc029	-5.992207
150	0xbd0ec809	-0.034858737
151	0x3f5d41ac	0.8642833
152	0x4220bdc7	40.18533
153	0x423b945f	46.894894
154	0x4267b5a7	57.927395
155	0x4247d462	49.957405
156	0x42c25530	97.16638
157	0x3f1c8a09	0.61148125
158	0xbd5ab0dd	-0.053391326
159	0x3ced8e91	0.028998645
160	0x3ca0b591	0.019617828
161	0x41808820	16.066467
162	0xbd3349ce	-0.043771558
163	0xbe0a85bb	-0.13527577
164	0x3ceb951f	0.02875763
165	0x420409bd	33.00951
166	0xc181a75a	-16.206715
167	0xbd163733	-0.036673736
168	0x42833f84	65.624054
169	0x42293f37	42.311733
170	0x428d3527	70.60381
171	0x427dd1a8	63.454742
172	0x418af025	17.367258
173	0x42398b1b	46.385845
174	0x424f1049	51.765903
175	0xc0ac6519	-5.387341
176	0x4294262e	74.07457
177	0x428858a0	68.173096
178	0xbd1468e7	-0.036232855
179	0x3b96425b	0.004585547
180	0xbbdf0ce0	-0.0068069547
181	0x3c1091a5	0.008823787
182	0xc261e005	-56.46877
183	0x41ea2dba	29.272327
184	0x3d7fd446	0.0624583
185	0x401b03b5	2.4221013
186	0xbdc4ce25	-0.096096314
187	0x3c8ef7f1	0.017452212
188	0xbda79843	-0.081833385
189	0x3f0eced1	0.55784327
190	0xbdc8a3ee	-0.09796892
191	0x3fd3e616	1.6554592
192	0x3d89f9e5	0.06737117
193	0x3f6422dc	0.8911569
194	0x42e6bf39	115.37348
195	0x4197fd8a	18.998798
196	0xbdfbc8fa	-0.122941926
197	0x3f67a2fd	0.90483075
198	0x4252d4d3	52.707836
199	0x3d88b284	0.06674674

4.weight f4 [100, 200]
0	0xbca081e1	-0.019593181
1	0x3c19327e	0.009350417
2	0x3d03f8b4	0.032219604
3	0x3da8d858	0.08244389
4	0x3d571e0e	0.052518897
5	0x3d35963e	0.044332735
6	0x3d7df504	0.062001243
7	0x3cfb3aa7	0.030667616
8	0xbd508670	-0.05090946
9	0xbd9546a0	-0.07288861
10	0x3ce23990	0.027615339
11	0x3c8ffc69	0.017576413
12	0x3c459ae1	0.012060852
13	0x3d14b55b	0.036305767
14	0x3db17fe8	0.08666974
15	0xbd56656a	-0.05234281
16	0x3d31848d	0.0433393
17	0xbc907b8b	-0.017637035
18	0x3d7d117a	0.061784245
19	0x3c74f385	0.014950638
20	0x3c91ece8	0.017813161
21	0xbd017103	-0.031601917
22	0xbca43491	-0.020044597
23	0x3c466a69	0.012110331
24	0x3d324891	0.043526236
25	0xbb7f9aa1	-0.0039002078
26	0xbc832404	-0.016008385
27	0x3ced1750	0.02894178
28	0x3d8c0797	0.06837385
29	0xbcc67b3d	-0.024228686
30	0x3da9bf5a	0.082884505
31	0x3d867e88	0.06567103
32	0xbd373a22	-0.044733174
33	0x3d6df4b2	0.058094688
34	0xbc2692ed	-0.010166866
35	0xbc193023	-0.009349856
36	0x3cc5d05e	0.024147209
37	0x3d7124de	0.05887305
38	0xbd26ff7b	-0.04077099
39	0x3b506620	0.0031799152
40	0x3b937031	0.0044994582
41	0xbd583493	-0.052784514
42	0x3d3993eb	0.04530708
43	0x3dab60c8	0.08368069
44	0xbd9f71da	-0.07785387
45	0x3d9ffa5c	0.07811424
46	0x3c31fc55	0.010863383
47	0x3da26118	0.079286754
48	0xbcef0029	-0.029174881
49	0xbbab8a8f	-0.0052350233
50	0xbc03dbaf	-0.008047982
51	0xbb0b79a8	-0.002128223
52	0xbd0c1059	-0.034195278
53	0x3d3ed289	0.0465875
54	0x3d2dd2f1	0.042437498
55	0x3caafd88	0.020872846
56	0x3c1f0d9e	0.009707836
57	0x3cd86d4b	0.026419302
58	0xbbcd7669	-0.006270219
59	0xbd8c1526	-0.06839971
60	0xbcb233f0	-0.021753281
61	0xbd1200ba	-0.035645224
62	0xbcd7480c	-0.026279472
63	0x3d384cc8	0.0449951
64	0x3c812eec	0.015769444
65	0x3dbc72f3	0.09201612
66	0x3bec3e1a	0.0072095515
67	0x398f5ae5	0.00027342807
68	0xbd895471	-0.06705559
69	0xbdac2aff	-0.08406638
70	0x3bfb0a92	0.007661172
71	0xbd4c19af	-0.04982918
72	0xbdabd46f	-0.08390128
73	0xbcd1247c	-0.025530092
74	0x3da59116	0.080843136
75	0xbac864fb	-0.0015288884
76	0x3c155d5b	0.009116496
77	0xbd8aaa5c	-0.06770775
78	0xbbd54338	-0.0065082572
79	0xbc1cdc03	-0.009573939
80	0xbdc02410	-0.093818784
81	0x3d01533a	0.03157351
82	0xbda51c14	-0.08061996
83	0x3da6517a	0.08121009
84	0xbcf5d710	-0.030009776
85	0x3d0760db	0.033051353
86	0x3ce8d800	0.02842331
87	0xbcaf2bcc	-0.021383189
88	0xbce3b2ca	-0.027795214
89	0xbc21cab3	-0.009874987
90	0x3cc71f5b	0.024306944
91	0xbd147727	-0.036246445
92	0xbd32bcd6	-0.04363712
93	0xbca64367	-0.020295812
94	0xbd185a6e	-0.037195615
95	0x3c2c4a21	0.010515721
96	0xbd48c4e0	-0.04901588
97	0x3c757230	0.014980838
98	0xbd291a94	-0.041285113
99	0x3c50dea2	0.012748392
100	0x3d50ee62	0.05100859
101	0x3d41aced	0.047284056
102	0xbc88772b	-0.016658386
103	0x3c9b28dd	0.018940384
104	0xbcd3fa9f	-0.025876341
105	0xbcb8f696	-0.022578519
106	0xbce4f204	-0.027947433
107	0x3d0539dc	0.032525882
108	0xbd9f3d8a	-0.077754095
109	0xbc3eda8b	-0.011648784
110	0xbd2d758a	-0.042348422
111	0x3db1df9c	0.08685228
112	0x3d31ee63	0.043440234
113	0xbd849a0c	-0.064746946
114	0xbd9ffe3a	-0.07812162
115	0xbd913144	-0.07089475
116	0xbc9e578f	-0.01932886
117	0xbca565bd	-0.020190114
118	0xbd32554e	-0.043538384
119	0xbc081fbc	-0.008308347
120	0xbdb867e6	-0.09004192
121	0x3d0512ba	0.032488562
122	0xbcb61b44	-0.022229798
123	0x3dbe9983	0.09306624
124	0xbcd5c5a6	-0.026095223
125	0xbd05215e	-0.032502525
126	0x3d9f74e0	0.07785964
127	0x3cd9e3d7	0.0265979
128	0xbbca4548	-0.0061728097
129	0x3c1d74ba	0.009610349
130	0xbd1670af	-0.036728557
131	0xbd19476d	-0.037421633
132	0xbd18a76b	-0.037269037
133	0x3d8114d4	0.06302801
134	0xbc703f81	-0.014663578
135	0xbd8cd58f	-0.068766706
136	0x3d0f42ed	0.034975935
137	0xbc50f0a5	-0.012752687
138	0xbd6c8fd1	-0.05775434
139	0x3c5f176f	0.013616427
140	0xbca00b63	-0.01953668
141	0x3d56001e	0.052246206
142	0xbccd2ab7	-0.025044782
143	0xbbe9fa68	-0.0071404465
144	0x3d18c823	0.03730024
145	0xbc93c156	-0.018036526
146	0xbd1015c6	-0.035177015
147	0x3d9d2275	0.07672588
148	0x3dbf28d7	0.093339615
149	0xbcbf9305	-0.023385534
150	0x3d225cb8	0.039639205
151	0xbdb9fb8f	-0.09081184
152	0xbd31c5cf	-0.043401536
153	0x3be3842d	0.006943247
154	0xbcb02566	-0.021502208
155	0xbd402063	-0.046905886
156	0xbd660ca6	-0.056164406
157	0xbc49a38d	-0.01230706
158	0x3d6719ae	0.056420974
159	0x3d054766	0.032538794
160	0xbcc1140d	-0.023569131
161	0x3d26968b	0.040670913
162	0xbcb20e5c	-0.021735363
163	0xbd160239	-0.036623213
164	0xbccd0056	-0.025024574
165	0xbdb73dda	-0.08947344
166	0xbcafded3	-0.021468556
167	0xbc140673	-0.009034741
168	0xbca59465	-0.020212362
169	0xbd8092ba	-0.06277986
170	0x3a82a719	0.0009968012
171	0xbd5dce33	-0.054151725
172	0x399ca02f	0.00029873985
173	0xbd98c2db	-0.07459041
174	0xbd924caa	-0.07143529
175	0xbd84f14c	-0.06491336
176	0xbb9e2b2e	-0.0048269248
177	0xbd20e1a5	-0.03927769
178	0x3da322c8	0.07965618
179	0x3d345d47	0.04403427
180	0x3d97edd2	0.074184075
181	0x3d8262b3	0.06366482
182	0xbd80f4c7	-0.062966876
183	0xbcf0fba5	-0.029416868
184	0x3d168913	0.036751818
185	0xbc1c0dd4	-0.009524781
186	0xb9d0f5e4	-0.00039856054
187	0xbd297c10	-0.04137808
188	0xbcaeda78	-0.021344408
189	0x3cf1e9ec	0.029530488
190	0x3ca04979	0.019566284
191	0xbd5d998c	-0.05410151
192	0x3d3fcdb9	0.04682705
193	0xbd8186cb	-0.06324538
194	0x3cfafcbf	0.030638097
195	0x3d24c0a1	0.040222768
196	0x3c440a4d	0.0119653465
197	0x3d177f33	0.03698654
198	0x3b654edf	0.0034989638
199	0x3d4b7a74	0.049677327
200	0x3df5b70b	0.11997803
201	0x3d938fbf	0.07205152
202	0x3ddb569a	0.10709877
203	0x3e068cdf	0.13139676
204	0x3dbee4e7	0.093210034
205	0x3d56f7a6	0.05248227
206	0xbd5f6937	-0.0545437
207	0x3d516ade	0.051127307
208	0x3cf4399e	0.02981263
209	0xbdddff70	-0.108397365
210	0x3d0d6f17	0.03452977
211	0xbd343481	-0.043995384
212	0xbdc9ce01	-0.09853745
213	0x3de770dc	0.11300823
214	0x3e28c8d9	0.16482867
215	0xbd8a669d	-0.06757853
216	0x3e0fa9fc	0.14029688
217	0x3c55a726	0.01304034
218	0x3d884cbe	0.066552624
219	0xbd3d0238	-0.046144694
220	0x3cad93e6	0.021188688
221	0x3e1e9df6	0.15489945
222	0x3dc9e141	0.09857417
223	0xb9b27a50	-0.00034041936
224	0x3cc6d816	0.02427296
225	0x3d6c2cd7	0.05765995
226	0xbc5d8030	-0.013519332
227	0x3d002c41	0.031292204
228	0x3dbb69d2	0.09151043
229	0x3dacfd7c	0.08446786
230	0x3da4e714	0.08051887
231	0x3e08be69	0.13353886
232	0x3d225342	0.039630182
233	0x3d092e55	0.03349145
234	0x3d7ba2c5	0.061434526
235	0x3e0a0ccb	0.13481443
236	0x3d238f6b	0.039931696
237	0x3cfcf740	0.030879617
238	0xbde768c7	-0.112992816
239	0x3d4e1429	0.050312195
240	0x3d352708	0.044226676
241	0xbd7e6a93	-0.062113356
242	0x3d28dd21	0.04122651
243	0x3dcfd869	0.10148699
244	0x3e17473d	0.14773269
245	0x3e06d546	0.13167295
246	0x3e0f87ea	0.14016691
247	0x3d83aa88	0.06429011
248	0xbc5bf65e	-0.013425438
249	0x3e0ef839	0.13961877
250	0x3b7b75fd	0.0038369887
251	0x3d59bed2	0.053160496
252	0xbcc70e20	-0.024298728
253	0x3d1e1e5c	0.03860317
254	0x3d2e072b	0.042487305
255	0x3d8cdba2	0.06877829

4.bias f4 [100]
0	0x3c25bd01	0.010115863
1	0xbdef9d7a	-0.11699958
2	0xbdb0489d	-0.086076
3	0x41f89b5f	31.075865
4	0xbdb0b0c1	-0.08627463
5	0xbd9c00fe	-0.07617377
6	0x3bb6a734	0.0055741314
7	0x41e020b4	28.015968
8	0xbd36603c	-0.04452537
9	0x41f82353	31.017248
10	0x41543f78	13.265495
11	0xbd06f26f	-0.032946046
12	0x41e11f0d	28.140162
13	0x3d527548	0.05138138
14	0x3d0a56fd	0.033774365
15	0xbd9222e0	-0.07135558
16	0x41d058a5	26.043283
17	0xbdc7c632	-0.097546
18	0xbdd797ac	-0.10526976
19	0x41c96015	25.171915
20	0xbdae8128	-0.08520728
21	0xbdbd047a	-0.092293695
22	0xbdec5e71	-0.11541451
23	0x42087cd7	34.121914
24	0xbbe1cfe5	-0.006891238
25	0x41362579	11.384149
26	0xc1c61437	-24.75987
27	0xbdbc52c4	-0.09195474
28	0xbd8384d7	-0.064218216
29	0x421006c2	36.0066
30	0x4173d73b	15.2400465
31	0x40fe145f	7.9399867
32	0xbd08fde5	-0.033445258
33	0x41d6418e	26.78201
34	0xbc6625a5	-0.014047061
35	0x41c23289	24.274675
36	0xbc76772f	-0.015043064
37	0x39c70b7b	0.0003796479
38	0xbd552886	-0.0520406
39	0x41c36ac9	24.427141
40	0x411a7544	9.653629
41	0xbd0389f8	-0.032114
42	0xbc03837d	-0.008026955
43	0xbe08f546	-0.13374814
44	0xbd9302b2	-0.071782485
45	0xbda84e77	-0.08218091
46	0x41f19996	30.199993
47	0x41ca01e5	25.250925
48	0xc20436d3	-33.05354
49	0xbda151fa	-0.07876964
50	0x41dc63f3	27.548803
51	0xc2151924	-37.27455
52	0xbcc900b3	-0.024536466
53	0x41c70769	24.878618
54	0x3c60318a	0.013683686
55	0x3c6cfc29	0.014464417
56	0xbae0060f	-0.0017091649
57	0xbdb56b00	-0.08858299
58	0xbd7a9499	-0.06117687
59	0x3ca1bb70	0.019742697
60	0x421746a7	37.818996
61	0xbd0de213	-0.03463943
62	0x4208fc57	34.246426
63	0xbd79685c	-0.06089054
64	0x3cc12655	0.023577848
65	0xbdc1bc34	-0.09459725
66	0xbd72fceb	-0.059323233
67	0xbd2a4abc	-0.04157518
68	0x41dc5625	27.542063
69	0xbd0fb3fe	-0.035083763
70	0x3c8a6967	0.016895963
71	0xbc0e3a28	-0.008680858
72	0x41cc26be	25.518917
73	0xbcd9be1f	-0.026579915
74	0x422cce51	43.20148
75	0xc20f40e7	-35.81338
76	0xbe0385cc	-0.12844008
77	0x3c79e0fd	0.015251395
78	0x41cc50a1	25.53937
79	0xc22e83ff	-43.628902
80	0x41dfe5ef	27.987272
81	0x41bbbe79	23.468004
82	0x4143e3de	12.243132
83	0xc1a60e17	-20.75688
84	0x41cbf477	25.494368
85	0xbc5896a2	-0.013219507
86	0x415fb8e0	13.9826355
87	0x41b0b785	22.08961
88	0xbca3611a	-0.019943763
89	0x41d8ff13	27.124548
90	0x3cabb5a8	0.020960644
91	0xbd88ab77	-0.06673329
92	0xc248de16	-50.21688
93	0xc0d42969	-6.630055
94	0xbc7ec135	-0.015548994
95	0xbdb3faf9	-0.087881036
96	0xbda15abe	-0.07878636
97	0x41a44ca9	20.537432
98	0x3cb00ae9	0.021489577
99	0x3c2dffae	0.010620041

6.weight f4 [4, 100]
0	0xc1efcdf0	-29.975555
1	0xc1ee0fbd	-29.757685
2	0xc1c22c9d	-24.271784
3	0x3ec4a8cc	0.38410032
4	0xc205ef0f	-33.483456
5	0xc206706a	-33.60978
6	0xc206796e	-33.618584
7	0x401c2a44	2.4400797
8	0xc1fa1b6b	-31.263388
9	0xc08dd6cd	-4.432471
10	0x3dff82e6	0.12476139
11	0xc1d0c9aa	-26.098469
12	0x4005a401	2.088135
13	0xc2067dc7	-33.62283
14	0xc1ff1b56	-31.888348
15	0xc206d528	-33.70816
16	0x3f634990	0.8878412
17	0xc20008c0	-32.008545
18	0xc206da73	-33.71333
19	0x3f0efc4c	0.55853724
20	0xc206869c	-33.631454
21	0xc1d1ea54	-26.239418
22	0xc1f96554	-31.174477
23	0x3f8b83ff	1.0899657
24	0xc20591b9	-33.392307
25	0xc00945c0	-2.1448822
26	0xc0347fa3	-2.8202903
27	0xc1de1e40	-27.76477
28	0xc2064b0c	-33.573288
29	0x40ab477f	5.3524776
30	0x3e093e6b	0.13402717
31	0xc11a4501	-9.641847
32	0xc1fe9e99	-31.82744
33	0x3f932b2d	1.1497551
34	0xc206610a	-33.594765
35	0x40db1123	6.845842
36	0xc1ddef85	-27.741953
37	0xc2065e2e	-33.591972
38	0xc1d2a0ea	-26.328571
39	0x3f149457	0.5803885
40	0xc185dc6a	-16.732624
41	0xc205cc6b	-33.449627
42	0xc1f79177	-30.946028
43	0xc1fdbb4d	-31.716455
44	0xc1fa2c91	-31.27176
45	0xc2065e5a	-33.59214
46	0x4001a45a	2.0256562
47	0x3f2e6e8d	0.6813744
48	0x408f285c	4.4736767
49	0xc202572d	-32.585133
50	0x3fb601ec	1.4219337
51	0x41266c5e	10.401457
52	0xc1ed2501	-29.643068
53	0x3f8fde92	1.1239798
54	0xc2065c23	-33.589977
55	0xc204712f	-33.11053
56	0xc1d8a3a8	-27.07991
57	0xc2069456	-33.64486
58	0xc206b998	-33.681244
59	0xc1d4001f	-26.50006
60	0x40c9e0c4	6.308687
61	0xc2061adf	-33.52624
62	0x411150ce	9.082228
63	0xc1f3f0a4	-30.4925
64	0xc1d36891	-26.426058
65	0xc1fcd498	-31.603806
66	0xc1d09814	-26.074257
67	0xc1e040a6	-28.031567
68	0x3fef1679	1.8678733
69	0xc2060b02	-33.51075
70	0xc20461b8	-33.09543
71	0xc2070016	-33.750084
72	0x3fb28ecb	1.3949827
73	0xc1df9fe3	-27.95307
74	0x41964e67	18.788282
75	0xc0b97f38	-5.7967796
76	0xc200ff1e	-32.249138
77	0xc201f202	-32.486336
78	0x3f01b75f	0.5067043
79	0xbde5d79e	-0.11222766
80	0x3fa8d1d2	1.3189032
81	0x3f8568bb	1.0422586
82	0xc0eb0a2f	-7.344993
83	0x3fdc9061	1.7231561
84	0x3f751dc1	0.95748526
85	0xc1d794bf	-26.94763
86	0xc0789947	-3.8843553
87	0x3ead75e0	0.33878994
88	0xc1d8edd2	-27.116123
89	0x3fd39711	1.6530477
90	0xc1dd1e10	-27.639679
91	0xc1d05915	-26.043497
92	0xc11c8fbe	-9.785093
93	0xc13e3fd8	-11.890587
94	0xc1f222af	-30.266935
95	0xc1dcb9ab	-27.590658
96	0xc205e5d5	-33.474445
97	0xbe030c28	-0.12797606
98	0xc1fae21b	-31.360403
99	0xc20688e5	-33.633686
100	0xc1e3a859	-28.457201
101	0xc1e36b56	-28.42741
102	0xc1c3a985	-24.457773
103	0x409e82a0	4.9534454
104	0xc1f6c76d	-30.847376
105	0xc1fb1210	-31.38382
106	0xc1fa8c16	-31.318401
107	0x3fa04054	1.2519631
108	0xc1e58cf9	-28.693834
109	0x40779514	3.868474
110	0x3e305267	0.17218934
111	0xc1ca981b	-25.32427
112	0x3fb0c0b4	1.3808808
113	0xc1fa863f	-31.31555
114	0xc1e90715	-29.128458
115	0xc1fa40a5	-31.281565
116	0x3f5df607	0.8670353
117	0xc1f15858	-30.168137
118	0xc1f99462	-31.197453
119	0x3f71d30b	0.9446265
120	0xc1fa9235	-31.32139
121	0xc1c9a33b	-25.204702
122	0xc1e9bd6a	-29.217487
123	0x3f71de60	0.9447994
124	0xc1f8eb86	-31.115002
125	0x3f060433	0.5235016
126	0x420a6a4c	34.603806
127	0xc1d4f3c0	-26.619019
128	0xc1fa2806	-31.269543
129	0x3fb7eb91	1.4368764
130	0xbf1e885c	-0.6192682
131	0x410a65de	8.64987
132	0xc1f1817e	-30.188229
133	0x3f27b804	0.6551516
134	0xc1fb9702	-31.448734
135	0x40319d41	2.775223
136	0xc1d31a30	-26.387787
137	0xc1fb8891	-31.441683
138	0xc1c98e6f	-25.194548
139	0x3e48b8a4	0.19601685
140	0x40c071e4	6.0139027
141	0xc1f6d21c	-30.852592
142	0xc1e9aa38	-29.208115
143	0xc1f36491	-30.424105
144	0xc1e82032	-29.01572
145	0xc1fa5703	-31.292486
146	0x3faadcb8	1.3348608
147	0x3f913a09	1.1345836
148	0x401310a3	2.2978904
149	0xc1f75d2e	-30.920498
150	0x3f6735f7	0.9031672
151	0xc1a03252	-20.02457
152	0xc1e55c74	-28.670143
153	0x3fbbdb57	1.4676312
154	0xc1fa3ca5	-31.279612
155	0xc1f67e46	-30.811657
156	0xc1cfc8c1	-25.973024
157	0xc1fb5101	-31.414553
158	0xc1fb16b5	-31.386087
159	0xc1ca9da2	-25.32697
160	0x40f720a9	7.722737
161	0xc1f99a96	-31.200481
162	0x3fc5a8e8	1.5442171
163	0xc1e9f69b	-29.245413
164	0xc1ca85df	-25.315367
165	0xc1ef24c3	-29.89295
166	0xc1c930b0	-25.148773
167	0xc1d60078	-26.750229
168	0x3f7298ba	0.9476429
169	0xc1f30fe8	-30.382767
170	0xc1f88e38	-31.069443
171	0xc1fb1334	-31.384377
172	0x3f59b29c	0.8503816
173	0xc1d44c1d	-26.537165
174	0x3f435800	0.7630615
175	0xc114a186	-9.289434
176	0xc1f0f344	-30.118782
177	0xc1f54d54	-30.662758
178	0x3f34139c	0.7034242
179	0x409b2a6d	4.848929
180	0x3fcf777f	1.6208342
181	0x3f6fc85b	0.93665093
182	0xc154c046	-13.296942
183	0xc1446d21	-12.276643
184	0x3fc89562	1.5670588
185	0xc1cde61c	-25.737358
186	0x408ff841	4.4990544
187	0x3ef8afc9	0.48571613
188	0xc1cfc078	-25.968979
189	0x3f0e1cd1	0.5551272
190	0xc1d3145f	-26.384947
191	0xc1ca5b8e	-25.294704
192	0xc215ddd2	-37.46662
193	0xc10fcd59	-8.987634
194	0xc1e786dc	-28.94085
195	0xc1d3e115	-26.484903
196	0xc1f8efdf	-31.117125
197	0x40585b85	3.380586
198	0xc1ea2425	-29.267649
199	0xc1fa0b5e	-31.25555
200	0xbf18af2d	-0.596423
201	0x3df7513e	0.120760426
202	0x3fdd51ff	1.7290648
203	0x3d2896d6	0.041159473
204	0xbfecf708	-1.8512888
205	0xbfe526a5	-1.7902418
206	0xbfef5bfe	-1.8699949
207	0x3fa53004	1.2905278
208	0xbe7c16c8	-0.24618065
209	0x41002f06	8.01148
210	0x3fdb474e	1.7131135
211	0x3fa4c324	1.2872052
212	0x3fa47db8	1.2850866
213	0xbff49238	-1.9107122
214	0xbee0c243	-0.4389821
215	0xbfec5061	-1.846203
216	0x3f7ace3d	0.97970945
217	0xbf37ec1c	-0.7184465
218	0xbff2d914	-1.8972497
219	0x3f8be644	1.0929646
220	0xbff952e6	-1.9478424
221	0x3fbb8ff3	1.4653305
222	0xbe942120	-0.28931522
223	0x3ccf1d29	0.02528246
224	0xbfe60efc	-1.7973323
225	0x3fe90baa	1.8206685
226	0x412bcd60	10.73764
227	0x3f3b754c	0.73225856
228	0xbfe5988b	-1.7937177
229	0x3fbd31f9	1.4780875
230	0x3fbe0b32	1.4847167
231	0x3fef7554	1.8707681
232	0xbfa21762	-1.2663386
233	0x3f80e26f	1.0069102
234	0xbff6bca1	-1.9276315
235	0x40069dc0	2.1033783
236	0x3f3dab5a	0.74089587
237	0xbff5d297	-1.9204892
238	0x3fab3a5c	1.3377185
239	0x3f8381ec	1.0274024
240	0x3f329b82	0.69768536
241	0xbfee79d2	-1.8630927
242	0xbf83cdc3	-1.0297168
243	0xbfc2e99c	-1.5227542
244	0xbf3cddbc	-0.7377584
245	0xbff02100	-1.8760071
246	0x3f29cc8d	0.66327745
247	0x4011eba8	2.2800083
248	0xc097fabe	-4.749358
249	0xbf9e4506	-1.2364814
250	0x3f8ced43	1.1009907
251	0xc1b1c236	-22.21983
252	0x3d2cbdb2	0.042173095
253	0x3fa57dc0	1.2929001
254	0xbff36266	-1.9014404
255	0xbfc23413	-1.5172142

6.bias f4 [4]
0	0x4206f28a	33.736855
1	0x41fb0251	31.376131
2	0x3fe72a35	1.8059756
3	0x41ebd7ac	29.480309
