src/model_ep_1000.pt (torch, 45932 bytes, 8 tensors)

0.weight f4 [50, 6]
0	0x3f3998e5	0.72498924
1	0x3fabef6c	1.3432441
2	0xc1b60eac	-22.757164
3	0xc1c96251	-25.173006
4	0xbf5acf2f	-0.8547239
5	0x40a0979f	5.0185084
6	0x3e110bdb	0.14164679
7	0x3d13aee3	0.036055457
8	0x41023e2b	8.140178
9	0x42e0e0ce	112.43907
10	0xbf5f087d	-0.8712233
11	0x40a92e92	5.286935
12	0x3c825b6f	0.01591274
13	0xbfa3110c	-1.2739577
14	0x40346f07	2.8192766
15	0x42521776	52.52291
16	0x3e7724c3	0.24135117
17	0x406fc792	3.7465558
18	0xbe9a3380	-0.30117416
19	0xbe86ea48	-0.26350617
20	0x3e89f9a4	0.26948273
21	0xbe7232b9	-0.23652162
22	0xbecfea42	-0.40608412
23	0x3ea135fc	0.314865
24	0xbe1fcd7e	-0.15605733
25	0x3d7e3d20	0.062070012
26	0x3ec5d2de	0.3863744
27	0x3e89cf98	0.26916194
28	0xbe799eb9	-0.24376954
29	0x3ba92340	0.005161673
30	0xbead9aa5	-0.33907047
31	0x3e13a584	0.14418608
32	0xbeb80d19	-0.35947493
33	0x3ec0c0b2	0.37647015
34	0xbe01ce7c	-0.12676424
35	0xbdae0330	-0.08496702
36	0x3d89c79b	0.06727525
37	0x3ef42600	0.47685242
38	0x40fc7307	7.8890414
39	0x41105943	9.021792
40	0x3dad60f9	0.08465762
41	0xc24a7db1	-50.622746
42	0x3dae974c	0.08524951
43	0xc1dfc41d	-27.970758
44	0xc0749d59	-3.8221037
45	0xc3093f29	-137.24672
46	0x3fbedd5f	1.4911307
47	0x41152d2f	9.323531
48	0x3e3030c0	0.17206097
49	0x407e61de	3.9747233
50	0x4099c9b0	4.80587
51	0xc17de12f	-15.867476
52	0x3ea9c95f	0.33161446
53	0xbfea5eba	-1.8310158
54	0x3ca5f709	0.020259397
55	0xbf7fc4ce	-0.99909675
56	0x4203c2b8	32.940155
57	0x4218d887	38.211452
58	0xbed92cd7	-0.42417023
59	0x40b9838a	5.797307
60	0xbe539472	-0.20662096
61	0x3ebfe848	0.37481904
62	0x3bbd6dc0	0.0057809055
63	0x3db24a50	0.0870558
64	0xbd7916e8	-0.06081286
65	0x3d343370	0.043994367
66	0xbf9d66fb	-1.2297052
67	0x3e95f03d	0.2928485
68	0x410d3291	8.824845
69	0x40974c8d	4.7280946
70	0x3f0aff63	0.5429594
71	0xc166e254	-14.430256
72	0xbe5cd352	-0.21564987
73	0xc063d0da	-3.5596223
74	0x4210f577	36.23971
75	0x4232387d	44.555164
76	0x3fb886e3	1.4416164
77	0xc21811eb	-38.017498
78	0x3ba0aab7	0.0049031633
79	0xc10b8ca5	-8.721837
80	0x40fed7c8	7.9638405
81	0x42546111	53.09479
82	0x3fc0140d	1.5006119
83	0x411db05d	9.855557
84	0x3e2ebd5c	0.17064422
85	0x3ff90cda	1.9457047
86	0x416bd454	14.739338
87	0x426c86c2	59.1316
88	0xc1441317	-12.254661
89	0x3f729952	0.947652
90	0x3e197405	0.14985664
91	0xc0956aaf	-4.669273
92	0xc0704404	-3.7541513
93	0x4255915b	53.39195
94	0x3f2eda77	0.683021
95	0xc28f02cc	-71.50546
96	0xbeda6fdb	-0.42663464
97	0x3db96bdf	0.09053778
98	0x4173c3be	15.235289
99	0x40207ee2	2.5077443
100	0xbb8b801b	-0.0042572147
101	0xc19ad8b3	-19.35581
102	0x3ec1998e	0.37812465
103	0x404d4153	3.207112
104	0xc1d05529	-26.041582
105	0x40079f12	2.119084
106	0xbf46ad76	-0.7760843
107	0xc14f9ceb	-12.97581
108	0xbe9ad5b3	-0.30241165
109	0xbea56180	-0.3230095
110	0x3e7a1764	0.24422985
111	0x3af2b4ce	0.0018517019
112	0x3d540643	0.051763784
113	0x3d70e544	0.058812395
114	0x3ba0a722	0.0049027363
115	0x3f446c25	0.76727515
116	0xbeb3dadb	-0.3512791
117	0xc1847c1a	-16.560596
118	0x3df587b0	0.11988771
119	0xc1d991e1	-27.19623
120	0x3ed5dade	0.41768545
121	0xbf0099d1	-0.50234705
122	0xc283b8b5	-65.860756
123	0xc1009c61	-8.038178
124	0xbec54d7c	-0.38535678
125	0x4098efdc	4.7792797
126	0xbeb69255	-0.35658517
127	0x3eb94076	0.36181992
128	0x3dcfc9d0	0.101459146
129	0xbe46fc34	-0.19432145
130	0xbeaec35f	-0.3413343
131	0xbeb965b8	-0.36210418
132	0x3d8122c3	0.063054584
133	0xc2ad1579	-86.54194
134	0x41059b03	8.350345
135	0xc1a1c52d	-20.221277
136	0x40a70fa2	5.2206583
137	0x3ff01054	1.8754983
138	0xbfa0dabf	-1.2566756
139	0x3de7d45e	0.11319803
140	0x4116d8cc	9.427929
141	0x3f922019	1.1416045
142	0x3d9c6af0	0.07637584
143	0xc17120fc	-15.070553
144	0x3ecf46c5	0.4048368
145	0x3e442362	0.19154122
146	0x41227e19	10.155786
147	0x4221259a	40.28672
148	0xbd6b0838	-0.057380885
149	0x40ad8d18	5.4234734
150	0xbd25e920	-0.04050553
151	0xbe2d4ea1	-0.16924526
152	0x3d8502d0	0.06494677
153	0xbacab700	-0.0015465915
154	0xbed07cf8	-0.40720344
155	0xbd9989cc	-0.07496986
156	0x3e080263	0.1328216
157	0x3fed7bbc	1.8553386
158	0x416791c2	14.473085
159	0x42394a11	46.32233
160	0xbc7e1085	-0.015506868
161	0x408b3baf	4.3510356
162	0xbd5afd20	-0.053464055
163	0xbe6cb9d7	-0.23117767
164	0x3e12d130	0.14337611
165	0x3dbfe394	0.09369579
166	0xbe57fe3b	-0.21093075
167	0x3db4381c	0.087997645
168	0x3e468c30	0.19389415
169	0xc3124bbe	-146.29587
170	0x407a7f2b	3.9140117
171	0xc34a7756	-202.46616
172	0xc2883c65	-68.11796
173	0x401f2161	2.4864123
174	0x3b4986bc	0.0030750474
175	0x40162bb3	2.3464172
176	0x41bf8cbe	23.943722
177	0x4238000e	46.000053
178	0x3e5dc03d	0.21655364
179	0x409c73ba	4.889127
180	0xbe0c2534	-0.13686067
181	0x3ea8789c	0.32904518
182	0x3c3637a0	0.0111216605
183	0x3e573408	0.21015942
184	0xbeb2b89c	-0.3490647
185	0x3e475988	0.19467747
186	0x3d9cbb6d	0.07652936
187	0xc0743614	-3.8158007
188	0x41afeabb	21.989614
189	0x40335184	2.8018503
190	0x3e1fc294	0.1560157
191	0xc1625f55	-14.148274
192	0x3d021a15	0.031763155
193	0x402b9f55	2.6815999
194	0xc115ef56	-9.370932
195	0x41d46b03	26.552252
196	0x3f490196	0.78518045
197	0x40a552ff	5.1663814
198	0xbec3cba8	-0.38241315
199	0x3e23a6d4	0.15981609
200	0x3e8796b4	0.26482165
201	0x3cec9f10	0.02888444
202	0xbd833da4	-0.064082414
203	0x3ec28cf8	0.37998176
204	0x3e4c212a	0.19934526
205	0x4023504d	2.5517762
206	0x41d1dc82	26.23267
207	0xc19dde7d	-19.733637
208	0xbc111059	-0.008853995
209	0xc0fe8721	-7.953995
210	0xbd81be38	-0.063351095
211	0xbe9a999a	-0.30195314
212	0x3d0c0cf8	0.034192055
213	0x3e99c228	0.30030942
214	0xbe07c87c	-0.13260072
215	0xbebf3026	-0.37341422
216	0x3dfb9cb1	0.12285746
217	0xbfb81932	-1.4382689
218	0xc17acc8c	-15.674938
219	0xc18b8787	-17.441175
220	0x3edaebce	0.4275803
221	0xc1389119	-11.535424
222	0xbee94feb	-0.45568785
223	0xc1aa20c7	-21.266005
224	0xc1250c13	-10.315448
225	0x4223d887	40.961452
226	0x40696f92	3.6474347
227	0x418bb4e2	17.463322
228	0x3ec61531	0.38688043
229	0x4026f0c4	2.6084452
230	0x410d3a2e	8.826704
231	0xc1e00300	-28.001465
232	0xbf6a680b	-0.91565007
233	0xc10e3237	-8.8872595
234	0xbdcb54a0	-0.0992825
235	0xbd0cbd70	-0.03436035
236	0xbdde3dd0	-0.108516335
237	0x3eb0c3da	0.34524423
238	0xbe6b2168	-0.22961962
239	0xbeb2a9a5	-0.34895054
240	0xbe20fdea	-0.1572186
241	0x3e955c94	0.29172194
242	0x3d927050	0.07150328
243	0x3e570f7c	0.21002
244	0xbeae508d	-0.3404583
245	0xbdaa2424	-0.083076745
246	0x3d8bf86a	0.068344906
247	0x405010dc	3.251029
248	0xc18b37c0	-17.402222
249	0x4091666b	4.543752
250	0x3fb01f4f	1.3759555
251	0xc17a5729	-15.646279
252	0x3e710326	0.23536357
253	0x4068c552	3.6370435
254	0x410eb63c	8.919491
255	0x426f60d2	59.84455

0.bias f4 [50]
0	0x42a30abb	81.52096
1	0x4102fe6a	8.187113
2	0xc321d1e2	-161.81985
3	0xbe1f612a	-0.15564409
4	0x3ea64202	0.32472235
5	0x3e23ef14	0.1600917
6	0x430b9d1f	139.61375
7	0x42242cad	41.04363
8	0x419f98bb	19.949575
9	0x4299020d	76.504005
10	0x3eb3209e	0.34985822
11	0xbf8b5b4b	-1.0887235
12	0x409c8b66	4.8920164
13	0xc1cd4167	-25.656935
14	0x41f08a46	30.067516
15	0x43151ec0	149.12012
16	0xc02f616d	-2.7403214
17	0x422e3c86	43.559105
18	0xbe894c5a	-0.26816064
19	0xc35468bd	-212.40913
20	0x42b47944	90.23685
21	0x3dc5f868	0.0966652
22	0x42a8c104	84.37698
23	0x3e575b6a	0.21030965
24	0xc2f1468e	-120.6378
25	0x3d36e130	0.04464835
26	0x42ec55ec	118.167816
27	0xb8a2eb0e	-7.768544e-05
28	0x42a460ac	82.18881
29	0x42f934c4	124.60306
30	0xbe1dc70e	-0.15407965
31	0xc2c4b70c	-98.35751
32	0x42b0f391	88.475716
33	0xbeb1d1fc	-0.34730518
34	0xc33116d6	-177.0892
35	0xbe5d664c	-0.21621054
36	0xc2620dd0	-56.51349
37	0xc26a8dd6	-58.63851
38	0xc2b1e702	-88.95119
39	0x3d8b4530	0.06800306
40	0x3e66bf70	0.22533965
41	0xc3502b52	-208.16922
42	0x42b6f27b	91.473595
43	0xbe57a33f	-0.21058367
44	0xc2c7bb36	-99.86565
45	0x4318821c	152.50824
46	0xc3763ada	-246.22989
47	0x42856815	66.703285
48	0x41d85724	27.04255
49	0x3e231c14	0.1592868

2.weight f4 [100, 50]
0	0xbe0e2009	-0.13879408
1	0xbcb9cd10	-0.02268079
2	0xbca0ea3c	-0.019642942
3	0xbd9831a1	-0.07431341
4	0x3d8e05b3	0.06934681
5	0xbd0dd2c4	-0.03462483
6	0x3cac9bc2	0.021070365
7	0xbd9036ee	-0.07041727
8	0xbd271f45	-0.040801305
9	0x3d460305	0.048342723
10	0xbd41eeae	-0.047346763
11	0x3e265a07	0.1624528
12	0x3df1db67	0.11809426
13	0x3dca9cef	0.09893214
14	0xbe2b6739	-0.16738595
15	0x3cb35d4e	0.021895077
16	0xbb0ffc22	-0.0021970351
17	0xbdacfbef	-0.0844649
18	0x3cf9a97b	0.030476322
19	0xbd908f29	-0.07058556
20	0xbd97419c	-0.07385561
21	0x3dbb17be	0.09135388
22	0x3da2ed3f	0.07955407
23	0x3c8a2d65	0.016867349
24	0x3d9e8553	0.07740273
25	0x3dad9b19	0.08476848
26	0xbda3cb3f	-0.079977505
27	0xbd7b289b	-0.06131802
28	0xbe19d919	-0.15024222
29	0x3db0cc42	0.08632709
30	0x3e19e6d9	0.15029468
31	0x3bdc89e9	0.0067303074
32	0xbe24e1c5	-0.16101749
33	0xbcc4692b	-0.02397593
34	0xbe07d2fe	-0.13264081
35	0x3dc36800	0.09541321
36	0x3da0379b	0.07823106
37	0xbced6b3f	-0.028981803
38	0x3d5e7bd4	0.05431731
39	0x3d60aa25	0.054849762
40	0x3e2c14d8	0.16804826
41	0x3cdb2f82	0.026756052
42	0xbe1971b6	-0.14984784
43	0x3e210d45	0.15727718
44	0xbd4d288e	-0.050087504
45	0xbc987a88	-0.018613115
46	0x3d3dbc45	0.046322126
47	0x3ab25ca7	0.0013607935
48	0xbdbd4172	-0.09240998
49	0x3dee38f1	0.116319545
50	0x3ba821c7	0.0051309797
51	0x3e805b69	0.2506974
52	0x3e8607ef	0.26177928
53	0xc32ce5f1	-172.89821
54	0xc32ce611	-172.8987
55	0xc32cdd71	-172.865
56	0xbf3376a7	-0.70102924
57	0x3e880f8f	0.2657437
58	0xbf427cc7	-0.75971645
59	0x3e84302a	0.25817996
60	0xc32d0901	-173.03517
61	0xc32731f4	-167.19513
62	0x3fcd1979	1.6023399
63	0x3eeff90f	0.46869704
64	0x3e2fd71c	0.17171901
65	0xbf4c2988	-0.7975087
66	0xc32af58d	-170.95918
67	0x3de126d7	0.10993736
68	0xc32cd6e8	-172.83948
69	0xbfa9ae93	-1.3256401
70	0xbba7c012	-0.005119332
71	0xc32cf864	-172.97028
72	0x3f186c7f	0.5954055
73	0xc32bceae	-171.80734
74	0x3e09ce08	0.13457501
75	0xc32d0147	-173.00499
76	0x3eba0609	0.3633273
77	0xc32cb92a	-172.7233
78	0xbe0f10ec	-0.13971299
79	0x3edcee92	0.43150765
80	0xc32cd1a6	-172.81894
81	0xbf74b0b9	-0.9558216
82	0xbd463fe4	-0.048400775
83	0xc32d0409	-173.01576
84	0xbf33580d	-0.7005623
85	0xc32cfd5b	-172.98967
86	0x3d897a58	0.06712788
87	0x3f80c28f	1.0059375
88	0xbe4be786	-0.19912538
89	0xc32cf1ef	-172.94505
90	0xc32ce228	-172.88342
91	0x3e18ed56	0.14934286
92	0x3ead18e0	0.3380804
93	0xc32d0114	-173.00421
94	0xbf7e3e5c	-0.993139
95	0x3e8c0b2b	0.2735227
96	0xbda9cdb3	-0.08291187
97	0x3ec8dc1a	0.39230424
98	0x3e34aa64	0.17643124
99	0xc32cf7d8	-172.96814
100	0x3f207b77	0.6268839
101	0x3f2e1f5c	0.680166
102	0x3ed3fa76	0.41402024
103	0xc2a8510c	-84.158295
104	0xc2a89b28	-84.30304
105	0xc2a86585	-84.19828
106	0x3f2e2fb0	0.68041515
107	0x3db69421	0.08914972
108	0xc0668a62	-3.6021962
109	0x3ec878cb	0.39154658
110	0xc2a845c3	-84.13625
111	0xc25ec127	-55.688625
112	0x40781e2b	3.8768413
113	0x3fb928b9	1.4465553
114	0x3f919f87	1.1376809
115	0xbfaa8597	-1.3322018
116	0xc2a132e3	-80.59939
117	0x400162cf	2.0216558
118	0xc2a85412	-84.1642
119	0xc03ee734	-2.9828615
120	0x3eedb5d6	0.46427792
121	0xc2a8ac30	-84.3363
122	0x3f7d0b7a	0.98845637
123	0xc2a0825e	-80.25462
124	0x3f1071d3	0.5642368
125	0xc2a848b1	-84.141975
126	0x3f3e5bbe	0.7435874
127	0xc2a85507	-84.16607
128	0xbf879481	-1.0592195
129	0x3f320777	0.6954264
130	0xc2a88fa3	-84.28054
131	0x3edfb491	0.4369245
132	0x3eb4cf5d	0.35314456
133	0xc2a88770	-84.26453
134	0xc001bd4e	-2.0271792
135	0xc2a83cef	-84.11901
136	0x3f75d934	0.9603455
137	0xc0041eb3	-2.0643737
138	0x3ea66253	0.3249689
139	0xc2a877de	-84.234116
140	0xc2a89175	-84.284096
141	0x3ef72b2f	0.48275134
142	0x3f22b0a5	0.6355079
143	0xc2a857f8	-84.171814
144	0xbf3bf02c	-0.7341335
145	0x3f253381	0.64531714
146	0xbe3cd93a	-0.1844224
147	0x3f4996ba	0.78745615
148	0xbe9a6f86	-0.3016321
149	0xc2a8aed0	-84.34143
150	0xbe0a2d59	-0.13493861
151	0x3ddaa91b	0.106767856
152	0xbe29abcd	-0.16569443
153	0xbd2bc8b1	-0.04193944
154	0x3e406bcf	0.18791126
155	0x3e437341	0.19086935
156	0xbddf0b58	-0.108908355
157	0xbdb507a7	-0.0883935
158	0xbc73de82	-0.014884593
159	0x3c447665	0.011991118
160	0x3cd1fd8f	0.025633601
161	0x3da86fb3	0.0822443
162	0xbdf79923	-0.120897554
163	0x3e01560a	0.12630478
164	0xbdd7a1d8	-0.10528916
165	0x3d565297	0.052324858
166	0xbdb5f849	-0.08885247
167	0xbd09ce30	-0.0336439
168	0xbb2e38b5	-0.0026584093
169	0xbc6abc56	-0.014327129
170	0xbe2ebf1a	-0.17065087
171	0xbcac555e	-0.0210368
172	0xbc3eafe3	-0.011638614
173	0x3cc20a0f	0.023686437
174	0x3d19a450	0.037510216
175	0x3dce7e31	0.10082663
176	0x3d471799	0.04860649
177	0x3d53a8db	0.051674705
178	0xbdf455e6	-0.11930446
179	0x3d89184e	0.06694089
180	0x3d02d005	0.031936664
181	0xbd332e21	-0.043745164
182	0xbd1f6940	-0.038918734
183	0x3e382e65	0.17986448
184	0xbe03447c	-0.12819093
185	0x3e18f547	0.14937316
186	0xbdfd6583	-0.123728774
187	0xbba58352	-0.005051055
188	0x3cd32353	0.02577368
189	0x3e07d098	0.13263166
190	0x3b909a0b	0.0044128946
191	0x3db34bb7	0.08754676
192	0xbdc73d47	-0.097284846
193	0xbd8099b2	-0.06279315
194	0xbd51a1a5	-0.051179547
195	0xbe1c4386	-0.15260133
196	0xbdfb87e3	-0.12281778
197	0xbbc05249	-0.005869184
198	0x3d8b55ca	0.06803472
199	0xbd393475	-0.045216043
200	0x3f4b3542	0.7937814
201	0x3d89db89	0.06731326
202	0xbeb01492	-0.34390694
203	0xc2855732	-66.6703
204	0xc28532b3	-66.59902
205	0xc284e81e	-66.453354
206	0xc280c1f5	-64.37882
207	0x3f93765a	1.1520493
208	0x412ea69c	10.915676
209	0xbfd8cce9	-1.6937534
210	0xc284ce89	-66.40339
211	0xc2274fd7	-41.82797
212	0xc2206237	-40.095913
213	0xbfad76da	-1.3551896
214	0xbf354996	-0.7081541
215	0xc2425f22	-48.592903
216	0xc2804a9a	-64.145706
217	0xc0d36a67	-6.6067386
218	0xc2854d4a	-66.650955
219	0xc2720f72	-60.515083
220	0x3fd0778f	1.6286486
221	0xc285522c	-66.66049
222	0x3ff7eb26	1.9368637
223	0xc27d5c71	-63.340275
224	0xbea992eb	-0.33119902
225	0xc284d043	-66.40676
226	0xbf30c8ce	-0.69056404
227	0xc284e1d6	-66.441086
228	0x4023becd	2.5585206
229	0xbfb3f9e0	-1.4060631
230	0xc2854418	-66.632996
231	0x403485af	2.8206594
232	0x3e743a60	0.23850393
233	0xc285488d	-66.6417
234	0xc0c4fa54	-6.1555576
235	0xc284edd0	-66.46448
236	0x3fe60047	1.7968835
237	0xbfb240f8	-1.3926077
238	0xbfc0e793	-1.5070671
239	0xc284e5ff	-66.44921
240	0xc2855cac	-66.681
241	0xc092e464	-4.5903797
242	0x3ea08a6f	0.31355616
243	0xc2850144	-66.50247
244	0x3f782d03	0.9694368
245	0x3d83ff57	0.064451866
246	0x3ee68e2a	0.45030338
247	0x3f8b1f69	1.0868961
248	0xbed7d7a5	-0.4215671
249	0xc2854aa3	-66.645775
250	0xbdca2dfe	-0.098720536
251	0x3b5152f5	0.0031940315
252	0xbe2451e5	-0.16046865
253	0xbd8d1b46	-0.068899676
254	0xbb38a0e4	-0.002817207
255	0x3d1acc4e	0.037792496

2.bias f4 [100]
0	0xbda8e075	-0.08245937
1	0x432ccd27	172.80138
2	0x42a8997b	84.29977
3	0xbdc0ab4f	-0.094076745
4	0x4285118f	66.534294
5	0xbda5fd25	-0.08104924
6	0x433d6150	189.38013
7	0x431905b2	153.02225
8	0x3cfc6571	0.03081009
9	0xbd8bcd08	-0.06826216
10	0xbdea4550	-0.114390016
11	0x43102088	144.12708
12	0xbdb1ae13	-0.0867578
13	0x3dbdecb4	0.09273663
14	0x431a77ba	154.46768
15	0xbe3f3df6	-0.1867598
16	0x4320512c	160.31708
17	0x42d53387	106.60064
18	0x43348913	180.53545
19	0x3d32079b	0.043464284
20	0xc3002460	-128.14209
21	0xbe0326af	-0.12807725
22	0x4318f37e	152.95114
23	0x3c042b51	0.008066968
24	0xbd8c61d2	-0.06854595
25	0xbd5fb7d6	-0.05461868
26	0x431af98c	154.9748
27	0x3de0d7e6	0.10978679
28	0x3d929316	0.07156961
29	0x43090473	137.01738
30	0xc2852577	-66.57317
31	0x42e33997	113.61248
32	0x3da41ce3	0.08013322
33	0xc3387dab	-184.49089
34	0xc3530d86	-211.05283
35	0x436b220b	235.13298
36	0xbe276842	-0.16348365
37	0xc34ad650	-202.83716
38	0xbd5f5523	-0.054524552
39	0x3d23b9d9	0.03997216
40	0x431ca9d2	156.66336
41	0x4314c206	148.7579
42	0xc304357a	-132.2089
43	0x3d845f48	0.06463486
44	0x3d093ed7	0.033507194
45	0xbe63c063	-0.22241358
46	0x4313bdea	147.74185
47	0x42ee6200	119.19141
48	0x4328d686	168.83798
49	0xbd4e92c9	-0.050432954
50	0x3d9607e1	0.073257215
51	0x3d63b8c8	0.055596143
52	0x430b005d	139.00142
53	0xbd801fcd	-0.062560655
54	0x4212399b	36.556255
55	0xc300b597	-128.70934
56	0xbde5ef96	-0.11227338
57	0xbe3a285c	-0.18179458
58	0x3e052409	0.13002028
59	0x3fcd98eb	1.6062292
60	0x434da75f	205.6538
61	0xbd74f066	-0.059799574
62	0x43262568	166.14612
63	0x3dc7be2f	0.097530715
64	0x3ceb832a	0.028749067
65	0xc3427323	-194.44975
66	0xc1de9601	-27.823244
67	0xc34c18db	-204.09709
68	0x432b1f60	171.12256
69	0xc35cc3b0	-220.7644
70	0xbe1173f8	-0.14204395
71	0xbe2379d6	-0.15964445
72	0xc30de1c2	-141.88187
73	0xc25b589f	-54.836544
74	0x4289cb6a	68.89729
75	0xc282931f	-65.287346
76	0x42e02638	112.074646
77	0x3dac3014	0.08407608
78	0x3f261c2b	0.6488673
79	0xc08218d4	-4.065531
80	0xc35abbb5	-218.73323
81	0xbdc99200	-0.098423004
82	0x43175ad6	151.35483
83	0xbd4a4061	-0.049377803
84	0x42ebe840	117.95361
85	0x3d873722	0.066023126
86	0xbddc582c	-0.10759005
87	0x432ed96e	174.84933
88	0xc2e58a49	-114.77009
89	0x430f3c2a	143.23502
90	0xc32a32e0	-170.19873
91	0x434e0ace	206.0422
92	0x3d867b9c	0.06566545
93	0x3c945f00	0.018111706
94	0x43a1b33b	323.40024
95	0x4318549f	152.33055
96	0x43045826	132.34433
97	0xc0d8247d	-6.754454
98	0xbd873e76	-0.0660371
99	0x4187df7a	16.98412

4.weight f4 [50, 100]
0	0x3df71d13	0.12066092
1	0x3d6b44ed	0.05743878
2	0xbb6099ae	-0.0034271288
3	0x3d8bb4ee	0.06821619
4	0xbcd8ca85	-0.026463756
5	0x3d18c15e	0.037293784
6	0xbc0a19d1	-0.008429007
7	0x3d8ab25a	0.06772299
8	0xbd348be8	-0.044078737
9	0x3db73d6b	0.089472614
10	0x3dc66707	0.0968762
11	0x3dcc61bd	0.099795796
12	0x3d905c93	0.07048907
13	0x3da11c92	0.078667775
14	0x3beac0e9	0.00716411
15	0xbbba1689	-0.005678956
16	0x3d1687eb	0.036750715
17	0x3bc24c5b	0.0059295124
18	0x3d6549b4	0.055978492
19	0xbd7b6921	-0.061379556
20	0xbe09890f	-0.1343119
21	0xbd6163db	-0.05502687
22	0x3bfe3a35	0.0077584037
23	0x3bb18e6b	0.005418589
24	0x3d9e82c3	0.077397846
25	0xbc1ddde8	-0.009635426
26	0xbcaaeecf	-0.020865826
27	0x3c5e36f5	0.013562907
28	0x3da34252	0.07971634
29	0xbd5466dc	-0.051855907
30	0xbcd9b52c	-0.026575647
31	0x3d968867	0.073502354
32	0xbcdbf442	-0.02684987
33	0x3d02d3b0	0.031940162
34	0x3da3e0d7	0.08001869
35	0xbe0cf908	-0.13766873
36	0x3d9b849f	0.07593655
37	0xbd7720cb	-0.06033401
38	0x3d8e52b3	0.069493674
39	0x3c5294fd	0.012852904
40	0xbd66302a	-0.056198277
41	0xbdef6984	-0.116900474
42	0x3dcdb740	0.10044718
43	0x3d93e991	0.07222284
44	0xbd4d0fea	-0.050064005
45	0x3d9b373d	0.07578895
46	0xbd57d3bd	-0.052692164
47	0xbcbc26b5	-0.022967676
48	0x3b565cd2	0.0032709134
49	0xbd14c699	-0.03632221
50	0x3cb924c6	0.022600543
51	0x3d9e821b	0.077396594
52	0xbd8f8444	-0.070076495
53	0xbd5e3a3f	-0.054254767
54	0xbdd8fe3c	-0.10595366
55	0xbd53be68	-0.051695257
56	0xbd6c2e29	-0.05766121
57	0x3dc53ecb	0.096311174
58	0xbcf7ee31	-0.030264946
59	0x3d996eeb	0.07491859
60	0x3dc72c1f	0.09725212
61	0xbc10fe1b	-0.008849646
62	0xbd75eb46	-0.060038827
63	0x3d8a925b	0.06766196
64	0xbd18b36f	-0.037280496
65	0xbc1dd3cb	-0.009633015
66	0x3cf237a9	0.029567556
67	0xbabc7b0c	-0.0014379933
68	0x3d9b4db9	0.07583184
69	0x3c1607e5	0.009157156
70	0x3dcf6f67	0.1012867
71	0x3dc0f3bd	0.094214894
72	0xbd544c75	-0.051830728
73	0x3d3545b4	0.044255927
74	0x3b1f61f3	0.0024319857
75	0x3c7b098d	0.015322101
76	0xbd101a6f	-0.03518146
77	0x3d48b310	0.048998892
78	0xbd04f36c	-0.032458708
79	0xbda8a229	-0.082340546
80	0x3caae798	0.020862386
81	0x3e0be923	0.13663153
82	0xbd55e154	-0.052216843
83	0x3d6f453e	0.058415644
84	0x3a665b82	0.00087874394
85	0xbd79648d	-0.06088691
86	0xbc8404bb	-0.016115537
87	0x3d7b5f8b	0.061370414
88	0xbcb0dcb5	-0.021589616
89	0xbd777ef8	-0.06042382
90	0x3d2ac66a	0.04169313
91	0x3c15f782	0.009153249
92	0x3d86f9a4	0.06590584
93	0xbc8740e7	-0.01651044
94	0xbd957b8f	-0.072989576
95	0x3da16d48	0.07882172
96	0xbe02793a	-0.12741557
97	0xbd16dff5	-0.036834676
98	0x3de34a17	0.11098116
99	0xbd134197	-0.035951223
100	0x3d6de04a	0.058075227
101	0xbdec6712	-0.115430966
102	0xbd3b544c	-0.04573469
103	0xbd6968dd	-0.05698477
104	0xbbdd40c0	-0.0067521036
105	0x3d2b573a	0.041831233
106	0xbd25b12f	-0.04045218
107	0x3d4c7861	0.04991949
108	0xbcd0738e	-0.025445726
109	0x3dbcd224	0.09219769
110	0x3cf9d287	0.030495895
111	0xbdf331f3	-0.118747614
112	0xbd2c4f70	-0.042067945
113	0xbd2e9bb0	-0.042628944
114	0xbd2044ce	-0.039128117
115	0xbc268cd7	-0.010165415
116	0x3d362deb	0.044477385
117	0xbd2f857b	-0.042851906
118	0x3bd0d888	0.006373469
119	0xbd3aa943	-0.045571577
120	0xbcae40d3	-0.021271145
121	0x3d3f689a	0.046730615
122	0x3d893141	0.066988476
123	0x3dc1a6ba	0.09455629
124	0x3dec491f	0.11537384
125	0xbaf8f340	-0.0018993393
126	0x3d0ef6b5	0.034903247
127	0xbd336f50	-0.043807328
128	0x3d93efde	0.072234854
129	0x3d3b3a71	0.04571003
130	0x3cba8760	0.02276963
131	0x3d1ab550	0.03777057
132	0x3dcd7599	0.100321956
133	0xbdb45221	-0.08804727
134	0xbd03b6d2	-0.032156773
135	0x3d4a16b5	0.04933806
136	0x3dbc2b56	0.09187953
137	0xbcc373d2	-0.023858938
138	0xbb434c1f	-0.002980001
139	0xbd6e417d	-0.058167923
140	0xbde4a41b	-0.11164113
141	0xbde82ae9	-0.113363095
142	0xbdebba2a	-0.11510117
143	0x3dc60a87	0.09669977
144	0xbbb79ff8	-0.0056037866
145	0xbd0469fc	-0.032327637
146	0xbca7f607	-0.020503057
147	0x3d27e618	0.04099092
148	0x3d0a83e4	0.033817187
149	0x3dd01b91	0.10161508
150	0x3da2558f	0.07926475
151	0x3def3ae3	0.116811536
152	0xbdd0d8bb	-0.10197588
153	0x3d0bfc6f	0.034176286
154	0xbd94274d	-0.072340585
155	0xbc2aaca4	-0.010417137
156	0x3dffa8a1	0.12483335
157	0x3c87b851	0.016567381
158	0x3e09953a	0.13435832
159	0xbd0c909a	-0.03431759
160	0x3d3f1cae	0.04665821
161	0x3d6101ea	0.054933466
162	0xbd41b8a1	-0.047295216
163	0x3e091b96	0.1338943
164	0x3d3b896e	0.04578536
165	0x3d360d1a	0.04444609
166	0xbd8be171	-0.06830109
167	0xbd34d280	-0.04414606
168	0xbd8639ed	-0.06554017
169	0xbc3dbc4e	-0.01158054
170	0x3dc5d185	0.09659103
171	0xbad6209e	-0.0016336625
172	0xbcdc9e65	-0.026930997
173	0xbe00bebc	-0.1257276
174	0xbd080a64	-0.033213034
175	0xbd008e7e	-0.03138589
176	0xbd88551b	-0.066568576
177	0xbc5ef113	-0.013607281
178	0xbd9e0291	-0.07715333
179	0x3b9f39b1	0.0048591723
180	0xbd83c4f0	-0.06434047
181	0xbd1b404b	-0.03790311
182	0xbd57608c	-0.05258231
183	0xbd6b903d	-0.057510603
184	0xbdf55829	-0.11979706
185	0x3c8bd992	0.017071519
186	0x3dca845b	0.09888526
187	0xbde4865e	-0.11158441
188	0x3d28a3b6	0.041171752
189	0xbddfd830	-0.10929906
190	0xbdc68825	-0.09693936
191	0xbdfa6884	-0.12226966
192	0x3d43b2a1	0.047777776
193	0x3d964494	0.07337299
194	0xbd425306	-0.04744246
195	0xbde5ee09	-0.11227042
196	0xbde1d33e	-0.110266194
197	0x3cdbeae3	0.026845401
198	0x3d298008	0.041381866
199	0xbde6d961	-0.112719305
200	0x3ccbf0eb	0.024895152
201	0xbb8fce1b	-0.0043885834
202	0xba381ff7	-0.0007023806
203	0x3d8375b0	0.064189315
204	0x3cffe98a	0.03123929
205	0x3dece70e	0.11567508
206	0xbd51e40f	-0.051242884
207	0xbd41048b	-0.047123473
208	0xbc8d70a6	-0.017265629
209	0xbd06fdd6	-0.03295692
210	0x3d5d10ce	0.053971104
211	0x3b37385a	0.0027957172
212	0x3e1fa6c6	0.15590963
213	0x3dda9a25	0.10673932
214	0xbc3cc6de	-0.011522023
215	0x3d1f1b26	0.03884425
216	0x3e0d0be8	0.13774073
217	0xbcb3e48f	-0.021959571
218	0x3d8c4cf5	0.06850616
219	0xbb0116ee	-0.0019697505
220	0x3c536ac0	0.012903869
221	0x3dfca13e	0.12335442
222	0xbd9b790c	-0.07591447
223	0xbd064ee6	-0.032790087
224	0x3e271078	0.16314876
225	0x3d9a644f	0.075386636
226	0xbd8e07ba	-0.069350675
227	0x3dcdf993	0.10057368
228	0x3dbcb819	0.09214801
229	0xbdaaeb9b	-0.083457194
230	0xbdfaafc4	-0.12240556
231	0x3d75aada	0.05997739
232	0x3ba362f5	0.004986162
233	0xbde1bb04	-0.110219985
234	0x3d8cb83f	0.0687108
235	0x3ce3d437	0.027811153
236	0x3d9805ad	0.074229576
237	0xbd051d3d	-0.032498587
238	0x3dc621ff	0.09674453
239	0x3df3290c	0.118730634
240	0x3d38d8c0	0.045128584
241	0xbdca7b68	-0.09886819
242	0xbdaf2d9c	-0.08553621
243	0x3e11e8c3	0.14248948
244	0xbb427f7e	-0.0029678042
245	0x3dd704b5	0.10498945
246	0x3d7c3f45	0.061583776
247	0x3dbcac52	0.09212555
248	0x3d8387bb	0.06422373
249	0x3d4b6514	0.049656942
250	0x3e1020d1	0.14075018
251	0x3d73365d	0.059378017
252	0xbdc05018	-0.09390277
253	0x3e0c25ac	0.13686246
254	0xbe268fc4	-0.1626578
255	0xbdb8bf18	-0.09020823

4.bias f4 [50]
0	0xbdc03451	-0.093849786
1	0xbd4b01c3	-0.049562227
2	0xbde7b613	-0.11314025
3	0x433c5c28	188.35999
4	0x430ef95b	142.97404
5	0xbe05d3a6	-0.13069019
6	0x430fb04d	143.68867
7	0x432c1187	172.06847
8	0xc33d8734	-189.52814
9	0xbc7bae4b	-0.015361379
10	0x3d3c49eb	0.04596893
11	0xbc17d17c	-0.009266254
12	0x3d136377	0.03598353
13	0xc336390f	-182.22289
14	0x431005f8	144.02332
15	0xbe1b0352	-0.15137985
16	0x4355dcb0	213.86206
17	0x430af1b6	138.94418
18	0xbdacde53	-0.084408425
19	0x3d35cc33	0.044384193
20	0x4334bbad	180.73311
21	0xbda1c2e2	-0.07898499
22	0x43112242	145.13382
23	0x4320dc0f	160.8596
24	0xbc56448e	-0.013077868
25	0xbe229111	-0.15875651
26	0xbe005dcf	-0.12535785
27	0xbdd93157	-0.10605114
28	0xc2c3d6e7	-97.91973
29	0xbd2f84e4	-0.042851344
30	0xbde0acd4	-0.10970464
31	0xbd7bcf76	-0.061477147
32	0xc3476976	-199.41196
33	0xc13d6933	-11.838183
34	0xbd902b73	-0.07039537
35	0xbcb18b67	-0.021672918
36	0xbcddbd58	-0.027067825
37	0xbdad09af	-0.084491126
38	0xbe4b2e10	-0.1984179
39	0x3d00591b	0.031334978
40	0xbdd7a466	-0.105294034
41	0xbdd403fa	-0.10352321
42	0x4305f5a5	133.95955
43	0xbdf4c1bc	-0.119510144
44	0x3c204eb4	0.009784389
45	0xbdfc40c1	-0.12317038
46	0x4308d3b7	136.82701
47	0x430faf3c	143.68451
48	0xbe088a0f	-0.13333915
49	0xbdbef62d	-0.09324298

6.weight f4 [4, 50]
0	0xc33addc5	-186.86629
1	0xc33b78ee	-187.47238
2	0xc33c9545	-188.58308
3	0x4115b145	9.355779
4	0x406e03ac	3.718974
5	0xc33cc74c	-188.7785
6	0xc02641af	-2.597759
7	0x416b3e9d	14.702786
8	0xc1a8598e	-21.043728
9	0xc33853df	-184.32762
10	0xc3389c5f	-184.61082
11	0xc336031f	-182.01219
12	0xc3349ee0	-180.6206
13	0x40a6d89f	5.213943
14	0x40e909e1	7.282456
15	0xc33cb157	-188.69273
16	0x43099923	137.59819
17	0x40dd6389	6.9184003
18	0xc3396f07	-185.4337
19	0xc337d4bb	-183.83098
20	0xc0d12f61	-6.5370336
21	0xc33cd063	-188.81401
22	0x40816663	4.0437484
23	0x41736c61	15.21396
24	0xc337a9c1	-183.6631
25	0xc332d877	-178.84557
26	0xc33c9206	-188.5704
27	0xc335d10d	-181.8166
28	0xc28df142	-70.97121
29	0xc33cab05	-188.66805
30	0xc33505c3	-181.0225
31	0xc33c9a0e	-188.60178
32	0xc1615050	-14.082108
33	0xc089caf2	-4.3060236
34	0xc3330c95	-179.04915
35	0xc33b672f	-187.40306
36	0xc33cb70d	-188.71504
37	0xc335e442	-181.89163
38	0xc33776ca	-183.46402
39	0xc33ba321	-187.63722
40	0xc33bd77a	-187.8417
41	0xc33adf0e	-186.8713
42	0x409ed877	4.963924
43	0xc337e232	-183.88358
44	0xc33c6c7e	-188.4238
45	0xc33a8ef0	-186.55835
46	0x41330607	11.1889715
47	0xbfcae60d	-1.5851456
48	0xc33c2fab	-188.1862
49	0xc3381c7b	-184.11125
50	0xc321a64e	-161.64963
51	0xc32251d9	-162.31972
52	0xc322ee21	-162.93019
53	0x4193c93c	18.473259
54	0x405a8e47	3.414934
55	0xc3230551	-163.02077
56	0x410ba2bc	8.72723
57	0x4021adec	2.5262403
58	0xc1cde2b5	-25.735697
59	0xc31fe8b9	-159.90907
60	0xc31fee02	-159.92972
61	0xc31e681f	-158.40672
62	0xc31d4440	-157.2666
63	0xc0933525	-4.6002374
64	0x40cf2815	6.473643
65	0xc322d0b7	-162.81529
66	0x42d925c2	108.573746
67	0x40c54903	6.1651626
68	0xc320908d	-160.56465
69	0xc3229dcb	-162.61638
70	0x417615df	15.38034
71	0xc322f40b	-162.9533
72	0x411105cf	9.063918
73	0x412ad027	10.675818
74	0xc3205546	-160.3331
75	0xc31d169f	-157.08836
76	0xc322ef8d	-162.93575
77	0xc31e35a4	-158.20953
78	0xc28533d0	-66.6012
79	0xc322d144	-162.81744
80	0xc31e0a05	-158.03914
81	0xc322e962	-162.91165
82	0xc160e894	-14.056782
83	0xc209a426	-34.4103
84	0xc31c59e7	-156.35118
85	0xc3225631	-162.33669
86	0xc322ecf8	-162.92566
87	0xc31f17f7	-159.09361
88	0xc3219ad1	-161.60475
89	0xc3223332	-162.19998
90	0xc322869d	-162.52583
91	0xc3222a71	-162.16579
92	0x3faf688e	1.3703783
93	0xc31f950d	-159.58223
94	0xc3223a0a	-162.22672
95	0xc321ffcd	-161.99922
96	0x408c6bad	4.388144
97	0x412e6dd7	10.901816
98	0xc321dad0	-161.85474
99	0xc32055d0	-160.3352
100	0xc2e99654	-116.79361
101	0xc2ea3e0e	-117.1212
102	0xc2eb6976	-117.70598
103	0x4052d4cb	3.2942379
104	0x401257cd	2.286609
105	0xc2eb62ab	-117.69271
106	0x416c9d07	14.788337
107	0x41cfe7c8	25.988174
108	0xc1a8c87a	-21.097889
109	0xc2e88c23	-116.273705
110	0xc2e8cdd5	-116.402016
111	0xc2e6fad9	-115.48994
112	0xc2e60dfd	-115.02732
113	0xc1dc60f7	-27.547346
114	0x40c1ab23	6.0521407
115	0xc2eb50e7	-117.65801
116	0x41a11a24	20.137764
117	0x405231ac	3.2842817
118	0xc2e9354b	-116.60409
119	0xc2eb7450	-117.72717
120	0x40a052a4	5.010088
121	0xc2eb3088	-117.59479
122	0x40d26b6a	6.575612
123	0x41110222	9.063021
124	0xc2e90e94	-116.52847
125	0xc2e5dc73	-114.930565
126	0xc2eb347b	-117.6025
127	0xc2e691ae	-115.28453
128	0x4128a221	10.539582
129	0xc2eb81ff	-117.7539
130	0xc2e5d6ad	-114.91929
131	0xc2eb8f34	-117.77969
132	0xc205b510	-33.42682
133	0x41583843	13.513736
134	0xc2e5a63d	-114.824684
135	0xc2ea05af	-117.0111
136	0xc2eb6105	-117.68949
137	0xc2e7b73e	-115.857895
138	0xc2e9c754	-116.88931
139	0xc2ec1c66	-118.055466
140	0xc2eb0627	-117.51202
141	0xc2eb10b6	-117.53264
142	0x41187f9e	9.531157
143	0xc2e7ef4a	-115.96736
144	0xc2eb620c	-117.6915
145	0xc2e95120	-116.65845
146	0x3fbbb21b	1.4663728
147	0x40c081dd	6.0158525
148	0xc2ea8e9b	-117.27853
149	0xc2e9bed0	-116.87268
150	0xc2ca8290	-101.255005
151	0xc2cac909	-101.39265
152	0xc2cbe011	-101.93763
153	0x40a02331	5.004296
154	0x40dd6668	6.918751
155	0xc2cbb279	-101.84858
156	0x4195289d	18.64483
157	0x412dfa1f	10.873565
158	0xc1df3dff	-27.905272
159	0xc2ca1ed1	-101.06019
160	0xc2c97f03	-100.74807
161	0xc2c8e965	-100.45585
162	0xc2c80680	-100.012695
163	0xc224dcd8	-41.215668
164	0x4151c3c1	13.1102915
165	0xc2cbc6b9	-101.88813
166	0x4251e0a0	52.46936
167	0x41139011	9.222672
168	0xc2ca5deb	-101.18343
169	0xc2cbdb69	-101.928535
170	0x3f900fcd	1.1254822
171	0xc2cbcb7d	-101.89744
172	0x41132e7d	9.19885
173	0xc0a688ab	-5.204183
174	0xc2c98317	-100.756035
175	0xc2c7230a	-99.568436
176	0xc2cc0855	-102.01627
177	0xc2c9126e	-100.535995
178	0xc13df864	-11.873142
179	0xc2cc0f4c	-102.02988
180	0xc2c846b8	-100.13812
181	0xc2cbed86	-101.96391
182	0xc149c022	-12.609407
183	0x405abb5a	3.417685
184	0xc2c7cd2a	-99.90071
185	0xc2caf24b	-101.47323
186	0xc2cbea2a	-101.95735
187	0xc2c8d8cc	-100.42343
188	0xc2cb38ef	-101.6112
189	0xc2ca78c7	-101.23589
190	0xc2cb875f	-101.7644
191	0xc2cb7df9	-101.74604
192	0x4050ffc5	3.265611
193	0xc2c9f24a	-100.97322
194	0xc2cbaad0	-101.83362
195	0xc2ca608f	-101.18859
196	0x41791294	15.567036
197	0x403e98d2	2.9780774
198	0xc2c9cc52	-100.89906
199	0xc2ca9397	-101.28826

6.bias f4 [4]
0	0x433cb802	188.71878
1	0x432307a6	163.02988
2	0x42eb4ec8	117.65387
3	0x42cbee54	101.965485
